weights/geneTCN_protozoa.pt (torch, 341729 bytes, 63 tensors)

tcn.network.0.conv1.bias f4 [32]
00000000: dccd 113c 7eab 173d 92cb 17bd 415a d6bb
00000010: ad8a 7fbb 62aa a0bc 6442 08bd 61ae c3bc
00000020: 69bb 17bd c40d 3fbc 1ec7 e53c 43f5 2dbd
00000030: d54d e13a c93d 363d b01d 4bbd a3cf 4fbd
00000040: 797a d4bc 553e 87bb 529f 083d cf88 82bd
00000050: a7f3 bfbc b103 6d3c b800 d73c 730a 60bc
00000060: 7f92 dfbc 7d11 b4bc fd30 57bc 2b0f 54bd
00000070: 5b1d d83b 74f3 883c 8815 133d 1f5d 3fbc
0.008899178 0.037028782 -0.037059374 -0.006541521 -0.003899257 -0.019612495 -0.03326644 -0.023886861
-0.037043963 -0.011660997 0.028049048 -0.042470228 0.0017189333 0.044492517 -0.04958886 -0.050735127
-0.025937306 -0.0041273036 0.033355065 -0.063737504 -0.023431612 0.014466212 0.02624546 -0.013674366
-0.027291534 -0.021980995 -0.013134238 -0.051772278 0.0065952963 0.01671765 0.035909206 -0.011679917

tcn.network.0.conv1.weight_g f4 [32, 1, 1]
00000000: 9115 153f 36d7 153f 47f7 133f f74b 033f
00000010: ecff 183f eaab 063f 5ea1 203f 559c 173f
00000020: bc6e 6c3f 2281 143f 1c9d 343f f175 0c3f
00000030: 1269 403f 3355 023f 986a 3a3f aa94 263f
00000040: 7a81 033f 22ec 0c3f c215 183f 022c 5a3f
00000050: 1d91 5c3f 1067 3e3f e16e 1b3f c347 063f
00000060: ec6a 033f 7819 3f3f de26 133f 5a3a 493f
00000070: 1818 163f f3c4 453f e809 053f eb2a f53e
0.5823603 0.5853151 0.5779919 0.5128779 0.59765506 0.5260607 0.62746227 0.5922292
0.9235647 0.5800954 0.7055223 0.54867464 0.75160325 0.50911254 0.728189 0.65070593
0.5136944 0.5504781 0.594082 0.852234 0.86158925 0.7437601 0.6071606 0.5245325
0.51335025 0.7464824 0.5748118 0.7860466 0.58630514 0.77253646 0.5196824 0.47884306

tcn.network.0.conv1.weight_v f4 [32, 21, 8]
00000000: da22 931f 3978 0300 d797 0227 4cba dd9a
00000010: 815c 129e 9c54 af39 eda3 db36 f25b 0811
00000020: 91bc 01be 726f ffbc b395 63bd 40a0 41bd
00000030: 356e 3abe a510 183d ba55 17be 4971 a7bd
00000040: f9f2 cbbd 257f b5bd ae74 5cbe f751 de3c
00000050: 47fc 87be be3a b6bd 1f6d 91be 32d6 4abe
00000060: 37aa ecbd bdc2 0bbe 7f55 73be 0f33 c3bd
00000070: 66a2 19be 1aa9 f4bd 81b4 a9be f9b4 c3bc
00000080: 8cff f6bc a809 1ebd f3d8 9e3d 1f87 10be
00000090: a000 be3d ef92 95bd 9a3c bc3c 13de 53bd
000000a0: d80e 913c b2cb 38bd 678d 11bd c91e 63be
000000b0: 4272 563d d49e e2bd c7ae a43e feb9 113d
000000c0: ad60 c33d 378e 7c3d 01ba 693d 7773 a33d
000000d0: 4747 43bd 4c88 c93d 9396 733d a8b8 833d
000000e0: fb58 13bd 9ce6 ab3c 952f aebd 6a8c ed3d
000000f0: eee5 b93c 3bd8 2c3e c532 ab3c 4658 39bc
00000100: e9a9 65bb ffb1 353d ce99 b7bd b8d8 f9bd
00000110: 90ba 193d a643 533d 4db2 113e ff9e 9d3d
00000120: f632 06bd 85c9 f93d a849 47bc d831 e73d
00000130: f18d e6bc 9b65 123e 60f0 0d3e 9589 af3d
00000140: 4f42 c9bc 9a04 913d 69a7 ca3d af67 1e3e
00000150: 1305 8c3d d460 3cbd 4ca5 0e3e d26b 183d
00000160: ed89 d9bd ff2e 4ebd bdaa cfbd b900 60bc
00000170: ff4f 6abe 1c09 baba 9532 13be 8bc2 28bd
00000180: a7e3 843e b178 ff3d 43f8 0d3d 75f4 0fbe
00000190: e620 833e 368b 83bd 52d9 17bc 20a2 d23e
000001a0: cef5 283e af7a 52bc d96e 463d b260 443e
000001b0: 5936 d53e 7ab1 45be 3994 cb3e c4a1 e33e
000001c0: b6ca fa3d baf6 00bc 0a1b cc3d 7e26 193d
000001d0: c617 c33d 1014 24bc ec47 cc3d cfaa 1f3d
000001e0: ebb8 04bd 3f7b 71bc 80b6 9c3d 44a7 b1bc
000001f0: 76bb e33b 91ba b73d cf77 15bd f779 8bbd
00000200: 39b9 1bbe 84b1 90bd 209e b03d 51ef 07be
00000210: 6d06 743a 17d1 df3c 1f08 07be eeeb 293c
00000220: f6a5 963d db44 b7bd 5c21 f73d f78b 03bd
00000230: 0b2b 0e3e 9386 67be 53ff 923d fdf6 d4bc
00000240: 841f e4bd 11df 51bd 28ca 203e c79b f5bc
00000250: 2a67 3bbd f4c0 703d 74ac c83d d96e d8bc
00000260: f346 8f3b 2cf3 c3bc 8d4e acbd bc47 e53c
00000270: 3b53 5c3d 726f fd3b 5b82 22bd 9138 63bd
00000280: 1e82 46bd b84a 27bd 4145 a03c a770 14be
00000290: cbac d23c 0ea3 c8bd e462 39be a413 07bd
000002a0: 5d2a 621c 08c7 8b0a 1969 8b28 7461 472a
000002b0: dc39 0000 5047 6caa 3c24 90ba f28e cd92
000002c0: 3095 a4bb 27fd 33bd f016 b5bd 65e6 243d
000002d0: 81ac 14be cc4c 49bd 6315 773d 43e5 a13d
000002e0: 521d afbb 8510 9ebd ad99 b4bd e53c 8439
000002f0: 830b abbd 988c 8ebe ebff 3ebd def1 89bd
00000300: d345 e3bd 853b 83bd bc8e 2ebd 8119 54be
00000310: d9f0 58be 3df1 8e3d 786c c3bd 4917 29be
00000320: 83f1 a6bd b92d 053e b143 c73d e37b e6bd
00000330: 6911 c6bd f047 8a3e bd5e 363e c05b 073d
00000340: 7778 58bd 36a9 7abe 8e99 25be ecdd b3bd
00000350: b03d b4bd e1f4 8dbe 11bb 9fbe d927 42be
00000360: 51f3 f4bb 0904 5d3d 9fec c9bd 1f2a d23d
00000370: 7d02 91bd c6f0 87bc 87cc 23bd 2324 383c
00000380: a174 febc 2245 1e3c e00f 5a3d 8e51 dfbb
00000390: a766 593d 185b abbd cde3 efbd 3d29 ae3c
000003a0: 56d9 0c3e 327b 653d c94e e93d b5ec b93d
000003b0: 5291 223e 4728 613e e727 4c3e 5f7d 183e
000003c0: 1568 9ebd 37dd 0bbd 5ba1 dcbd 00bf f8bd
000003d0: 96d6 93bd 92bf 243d 0807 cebd 94e2 20be
000003e0: 8f38 423c 3994 833d cf86 f93c 0530 283d
000003f0: 7b31 cc3a e25c 823e 3865 083e abc0 883d
6.231458e-20 3.18634e-40 1.8123437e-15 -9.1704437e-23 -7.748305e-21 0.0003344164 6.545792e-06 1.0756841e-28
-0.12669589 -0.031181071 -0.055562686 -0.047271967 -0.18206103 0.03712525 -0.14778796 -0.08175904
-0.09958453 -0.088621415 -0.21528885 0.027138693 -0.2655966 -0.08897923 -0.28403565 -0.19808272
-0.115559034 -0.13648506 -0.23763083 -0.09531223 -0.15003356 -0.11946316 -0.33145526 -0.023890005
-0.030151151 -0.038583428 0.077562235 -0.14114045 0.09277463 -0.07303416 0.022978116 -0.05172546
0.017707273 -0.045116134 -0.035535242 -0.22179712 0.05235506 -0.1106545 0.32164595 0.035577767
0.09539924 0.061659064 0.057062153 0.079810075 -0.047675397 0.0984045 0.05946977 0.06431705
-0.03597353 0.020983987 -0.08505169 0.115990475 0.022692647 0.1687936 0.020898232 -0.01131255
-0.0035043901 0.044359203 -0.08964883 -0.12199539 0.037531435 0.051578186 0.14228173 0.07696342
-0.032763444 0.1219664 -0.012163557 0.11288804 -0.028143855 0.14296572 0.13861227 0.085711636
-0.024567751 0.07080956 0.09895212 0.1546924 0.06836905 -0.04599078 0.13930243 0.0372122
-0.106220104 -0.050337788 -0.101399876 -0.013672047 -0.22882079 -0.0014193389 -0.14374764 -0.041201156
0.25954935 0.12474192 0.03466059 -0.14058097 0.25611037 -0.06423037 -0.009268122 0.41139317
0.16500017 -0.012846633 0.048445556 0.19177511 0.41643026 -0.19305983 0.39761522 0.44459355
0.12245695 -0.007871324 0.09966095 0.037390225 0.09526019 -0.010014549 0.099746555 0.038981255
-0.032402914 -0.014738857 0.076519966 -0.021686204 0.0069498373 0.089711316 -0.03649121 -0.06810372
-0.15207376 -0.070651084 0.0862391 -0.13274886 0.0009308819 0.027321381 -0.13186692 0.010371191
0.07355873 -0.0894868 0.1206691 -0.032115903 0.13883607 -0.2260993 0.071776055 -0.02599668
-0.11138824 -0.051238123 0.15702116 -0.029981507 -0.04575268 0.058777764 0.09798518 -0.026420044
0.0043724715 -0.023919664 -0.0841342 0.027988307 0.053790312 0.0077342326 -0.039675098 -0.055473868
-0.048463933 -0.04084274 0.019564273 -0.14496098 0.02571716 -0.09796725 -0.1810413 -0.032977715
7.483188e-22 1.346008e-32 1.5477679e-14 1.7708561e-13 2.0756e-41 -2.0985752e-13 -0.0010997127 -1.2972558e-27
-0.0050226673 -0.043942597 -0.088422656 0.040258784 -0.1451893 -0.049145505 0.06032313 0.07905056
-0.0053440714 -0.077179946 -0.08818374 0.00025222372 -0.08351805 -0.2784164 -0.04663078 -0.06735586
-0.11097302 -0.06407837 -0.04261659 -0.20712854 -0.21185626 0.06979606 -0.09542173 -0.16512789
-0.081515335 0.13005723 0.09729708 -0.11254098 -0.096712895 0.2700801 0.17809577 0.033046484
-0.05284926 -0.24478611 -0.16171858 -0.087825626 -0.088008285 -0.2772589 -0.31197408 -0.18960513
-0.0074752946 0.053958926 -0.09859585 0.1026194 -0.07080553 -0.016594302 -0.039989974 0.011239084
-0.031061472 0.009660037 0.053237796 -0.006815142 0.053076413 -0.08366984 -0.117133714 0.021259898
0.13754782 0.05602569 0.1139198 0.090783514 0.15875748 0.21988021 0.19937097 0.14891575
-0.07734696 -0.034146514 -0.107729636 -0.12145805 -0.072186634 0.04022176 -0.10059935 -0.15711433
0.011854305 0.064247556 0.03045979 0.04106142 0.0015578711 0.2546149 0.13319862 0.066773735

tcn.network.0.conv2.bias f4 [32]
00000000: dab2 1e3d 5dd4 2fbc 6be1 c23d 00e6 aebb
00000010: c4f5 2ebd 185b 2dbc b778 d0bc ffd5 43bd
00000020: 8540 11bc 440c 6f3b e40d 1cbd a1fb 813c
00000030: abcf b73c 9b12 b0bc 8d76 56bc fcae d33c
00000040: f567 e33c 6e5c 6abd de58 38bc 7359 163d
00000050: ebb4 25bb 9996 803d dd78 f23d 96b9 733d
00000060: f290 773d d2e8 cabd 6e7b 7dbc 72e1 443d
00000070: 98d0 423c 7cec 1abc 0693 5c3c 103d acbd
0.038744785 -0.010731784 0.09515651 -0.0053374767 -0.04271485 -0.0105808005 -0.025448186 -0.047811504
-0.00886548 0.0036475817 -0.038099185 0.015867056 0.022437891 -0.021493247 -0.013089788 0.025840275
0.027759532 -0.057217054 -0.011251656 0.0367064 -0.0025284837 0.06278724 0.11839459 0.05950316
0.060440965 -0.09907688 -0.015471322 0.048066564 0.011890553 -0.009455796 0.0134627875 -0.08410084

tcn.network.0.conv2.weight_g f4 [32, 1, 1]
00000000: c33f 973f bd6d 473f 1a51 9f3f 71d9 8e3e
00000010: c1b6 3a3f 6fdc 143f b996 303f 8089 8f3e
00000020: 51ac 563f 67fe 983e afa4 983e 1280 6e3f
00000030: 3143 a63f e122 233f 1f43 5c3f 27b6 553f
00000040: ed1c 2c3f 3221 8c3e 7425 473f 63d1 563f
00000050: d8a0 993e 890a 8c3f 494d 683f 26fd 8f3f
00000060: ea59 693f fe64 7d3f d774 363f 78c8 453f
00000070: 68bb 273f ffdc 183f 8d65 473f b7c2 1f3f
1.1816334 0.7790182 1.2446625 0.2790027 0.7293511 0.58148855 0.68979985 0.28034592
0.83856684 0.29881594 0.29813144 0.9316417 1.2989255 0.63725096 0.8603992 0.8348107
0.6723164 0.27369076 0.77791524 0.8391325 0.30005527 1.0940715 0.9074293 1.124913
0.9115282 0.98982227 0.71272033 0.77259016 0.65520334 0.59712213 0.7788933 0.62406486

tcn.network.0.conv2.weight_v f4 [32, 32, 8]
00000000: 3822 cf3d ff2a 8f3d 8235 583d c2c7 003e
00000010: dc60 843d 8624 903e 4248 713d 35cd 583e
00000020: 7fa4 b7b9 b03d 87bd 7a26 e7bd 9232 23be
00000030: 3baf 66be c838 04be 8c70 7abe 1b33 87be
00000040: fccb 3d3d 6b40 f83c f357 da3d f0b4 e93d
00000050: 891f 1f3e 09fb 0b3d 47a0 dd3d 9ff6 ed3d
00000060: 814a 9ebd 1226 96bd 1953 963c 7255 1cbd
00000070: a36a abbd f328 b0bd ac54 f7bd 1f92 b2bd
00000080: ab47 4c3c 4ad2 2d3d b3c8 153c b28c d9bb
00000090: 0212 613d c325 ee3a 2bcc 583d 12f7 6c3d
000000a0: d658 30bd 6090 c5bd b41d d3bd 8622 58bd
000000b0: 0a3e d6bd 546a 32be 553c 0dbe 9681 0cbe
000000c0: 0be4 bf3d 70eb cf3d 1263 323e 778e 0b3e
000000d0: 3b39 3a3e e192 883e 9594 8f3e 677a b63e
000000e0: b8fb 5bbd d9f6 c9bd d4a2 52bd fd36 cc3b
000000f0: 06a8 4fbc fe98 80bd e186 eabd c3d7 85bd
00000100: 0d06 983d aefe a3bc 01fb 4dbd 930d cbbc
00000110: c240 c0bd 3307 b3bd 9074 bbbc 0a5e fbbd
00000120: d234 bbbd 9746 cdbd ae69 0dbe aed3 8dbd
00000130: 6f59 f4bd 0140 19be 321f febd 59bd 06be
00000140: 8fbb fa3c fd0b ca3d 96b4 193e a84d 3e3e
00000150: bb6f 243e 9889 573e 4eac 783e 3984 e03e
00000160: 36af 7a3d 1766 a53d 203d 163d a67a 853d
00000170: 1c25 cd3c 0d2d c53d 89ab c33c 4223 8d3e
00000180: 063f a6bd 05a0 dc3c 8718 c6bb 1df4 533c
00000190: 0712 5bbd 8a11 38bc 9b90 b63d 4d2f dbbc
000001a0: c690 8fbd 5dd2 adbd d908 96bd 8514 cabd
000001b0: 1c61 f4bd da0f b9bd dbb3 00be b39e 29bd
000001c0: 9998 003d 8203 76bc 8c6e de3d 8d99 c63d
000001d0: d03f 4f3e 1aca 2f3e 717c 003e d3c1 283e
000001e0: 8c61 b8ba deb6 bb3e 6fac ca3e 03d1 533e
000001f0: 8530 553e b2ab be3e 201b d13e d766 6a3e
00000200: 4463 efbd 91f4 0ebe 7119 1abe e294 25be
00000210: 1a06 bfbd 697b 43be ae85 3fbe 4b46 00be
00000220: c9ae 1a3c 1611 92bd fe6a fe3c 5108 bfbd
00000230: 1a4f 9d3d a069 c8bd 6597 77bd 0990 32be
00000240: c7ed 72bc ce83 e9b9 0943 0cbd 55b8 2bbc
00000250: 87e7 4aba 66d5 803d fa6b 3e3d 41b1 9a3d
00000260: 11da c03d 0a9f 5b3d d1e9 ba3d da17 083d
00000270: 766d 203e f64b a73d 92dc df3d c37d de3c
00000280: 63eb 90bd 6ee0 62bc 4466 06be 430c 1ebc
00000290: 6b98 cdbd eb6a 10bd fd1d 98bd 9ae8 fabb
000002a0: e3cd 05bd b225 e9bc e678 593d 2dd8 1c3d
000002b0: e16e 883d 8da4 84bc 3c2c 863b befd f9bd
000002c0: 2624 b0bd cc43 c0bd ab50 b1bd c984 42bd
000002d0: 010f 4cbd 65ea 23bd e538 03be 02d4 82bd
000002e0: 56b2 82bd 9347 2a3d bb2c 943c 3a9d a93d
000002f0: 05bc 94bc 6641 523d ea62 2ebe 8215 8a3d
00000300: 7297 7dbd 29f7 803c 6a74 333d 7aa9 b6bd
00000310: 7838 f33d 1fe7 113d 8bb2 7e3e 15f3 cdbd
00000320: 1408 eebd 6b7f 563d ea28 823d 648d 353d
00000330: 65b9 a2bd da58 0b3e ab69 96bd cba9 033b
00000340: 0ab4 a63c ae4e 083d b1d7 8fbd 2801 13bd
00000350: 1dcf 20bc 6766 fabc 9093 51bd dbc5 0dbd
00000360: 9ae9 6fbd cd92 a3bd 8548 65bd ec3e 16be
00000370: 8e53 1cbe f27f 9fbd fa89 43bd 4fe6 acbd
00000380: 71ae 883d 53f9 353e 23a0 7d3d b243 fbbc
00000390: 264a 963d 6049 193e 316a d03d 88e8 273e
000003a0: ff26 e2bd d6de 0e3d 1e0c 0a3e 3b07 aa3c
000003b0: 8f3d 45bb 0e3a 123e 43c1 f43d ecdc ef3d
000003c0: 0e32 3d3c 9ede c83c 1e53 09bd e394 84bd
000003d0: 9187 85bd 78d2 0fbc 4835 b63c b10f 9f3c
000003e0: add4 7a3e cce3 5f3e e40e 883e 97ed 543e
000003f0: 339f 653e f950 973e 93dd c33e 120c 1e3e
0.101139486 0.06990623 0.052785404 0.12576202 0.06463787 0.28152865 0.0589068 0.2117203
-0.0003502704 -0.06603563 -0.11286636 -0.1593726 -0.22527783 -0.12912285 -0.24456996 -0.26406178
0.046337113 0.030304154 0.10661306 0.11411464 0.15539373 0.034174953 0.10821586 0.11619305
-0.07729054 -0.0733148 0.01835017 -0.038167424 -0.08369949 -0.086015604 -0.12076697 -0.08719277
0.012468259 0.042436875 0.009142089 -0.0066390866 0.054948814 0.0018169213 0.052929085 0.057852812
-0.04305347 -0.09646678 -0.103084 -0.0527673 -0.10461052 -0.17423373 -0.13792546 -0.13721308
0.093696676 0.10152328 0.17420605 0.13628565 0.18185894 0.2667456 0.28043047 0.3564026
-0.053706855 -0.098615356 -0.051424816 0.006232141 -0.012674337 -0.06279181 -0.11451507 -0.06535294
0.07423029 -0.020018902 -0.050288204 -0.024786746 -0.093873516 -0.087416075 -0.02288273 -0.12273796
-0.09140934 -0.100232296 -0.13809845 -0.0692514 -0.119311206 -0.14965822 -0.12408294 -0.13158168
0.030607013 0.09865568 0.15010294 0.18584311 0.16058247 0.21048582 0.24284479 0.43850878
0.06120225 0.08076113 0.036679387 0.06517534 0.02504211 0.096277334 0.023885505 0.27565962
-0.081174895 0.026931772 -0.0060454044 0.012936619 -0.05348399 -0.01123465 0.089143 -0.026755953
-0.07010035 -0.08487389 -0.07325906 -0.09867195 -0.11932585 -0.090362266 -0.1256861 -0.041411113
0.03139553 -0.015015485 0.10860929 0.09697256 0.20239186 0.1716694 0.1254747 0.16480188
-0.0014067157 0.36662954 0.3958468 0.206852 0.2081929 0.37240368 0.40841007 0.22890793
-0.11688855 -0.13960482 -0.15048768 -0.16170076 -0.09327336 -0.19090046 -0.18703339 -0.12526815
0.009441086 -0.07132165 0.031056877 -0.09327758 0.07681103 -0.09785771 -0.060447115 -0.17437758
-0.014827198 -0.00044539425 -0.034243617 -0.01048096 -0.0007740189 0.062907025 0.046489693 0.0755334
0.09416593 0.05361847 0.09126628 0.03322587 0.15666756 0.08168785 0.10930742 0.027159577
-0.070761465 -0.0138474535 -0.13124949 -0.009646478 -0.10038837 -0.035258215 -0.07427595 -0.007657123
-0.032667052 -0.028460357 0.053093813 0.0382921 0.066617735 -0.016191745 0.0040946286 -0.122066006
-0.08600645 -0.09387931 -0.08657964 -0.047489915 -0.049818996 -0.040018458 -0.12814672 -0.063880935
-0.06381671 0.041572165 0.018087735 0.08281942 -0.018156061 0.0513319 -0.1702992 0.067423835
-0.061912008 0.015742855 0.043812193 -0.08919044 0.11876005 0.035620805 0.24872796 -0.1005613
-0.116226345 0.05236761 0.0635546 0.044324294 -0.079455175 0.13608113 -0.07344373 0.0020090218
0.020349521 0.03327816 -0.07023562 -0.035889775 -0.009815005 -0.030566407 -0.051166117 -0.034612518
-0.05857239 -0.079869844 -0.055977363 -0.1467244 -0.15266249 -0.077880755 -0.047739007 -0.084423654
0.06673897 0.17770891 0.061920296 -0.030671928 0.073383614 0.14969397 0.101765044 0.16397297
-0.11042594 0.03488048 0.13481185 0.0207554 -0.0030096506 0.14279959 0.11950924 0.117120594
0.0115475785 0.024520215 -0.033526532 -0.064737104 -0.06519998 -0.008778207 0.022242203 0.019416662
0.24495192 0.21864241 0.2657386 0.20793758 0.22424011 0.29553965 0.38254985 0.15434292

tcn.network.0.net.0.bias f4 [32]
00000000: dccd 113c 7eab 173d 92cb 17bd 415a d6bb
00000010: ad8a 7fbb 62aa a0bc 6442 08bd 61ae c3bc
00000020: 69bb 17bd c40d 3fbc 1ec7 e53c 43f5 2dbd
00000030: d54d e13a c93d 363d b01d 4bbd a3cf 4fbd
00000040: 797a d4bc 553e 87bb 529f 083d cf88 82bd
00000050: a7f3 bfbc b103 6d3c b800 d73c 730a 60bc
00000060: 7f92 dfbc 7d11 b4bc fd30 57bc 2b0f 54bd
00000070: 5b1d d83b 74f3 883c 8815 133d 1f5d 3fbc
0.008899178 0.037028782 -0.037059374 -0.006541521 -0.003899257 -0.019612495 -0.03326644 -0.023886861
-0.037043963 -0.011660997 0.028049048 -0.042470228 0.0017189333 0.044492517 -0.04958886 -0.050735127
-0.025937306 -0.0041273036 0.033355065 -0.063737504 -0.023431612 0.014466212 0.02624546 -0.013674366
-0.027291534 -0.021980995 -0.013134238 -0.051772278 0.0065952963 0.01671765 0.035909206 -0.011679917

tcn.network.0.net.0.weight_g f4 [32, 1, 1]
00000000: 9115 153f 36d7 153f 47f7 133f f74b 033f
00000010: ecff 183f eaab 063f 5ea1 203f 559c 173f
00000020: bc6e 6c3f 2281 143f 1c9d 343f f175 0c3f
00000030: 1269 403f 3355 023f 986a 3a3f aa94 263f
00000040: 7a81 033f 22ec 0c3f c215 183f 022c 5a3f
00000050: 1d91 5c3f 1067 3e3f e16e 1b3f c347 063f
00000060: ec6a 033f 7819 3f3f de26 133f 5a3a 493f
00000070: 1818 163f f3c4 453f e809 053f eb2a f53e
0.5823603 0.5853151 0.5779919 0.5128779 0.59765506 0.5260607 0.62746227 0.5922292
0.9235647 0.5800954 0.7055223 0.54867464 0.75160325 0.50911254 0.728189 0.65070593
0.5136944 0.5504781 0.594082 0.852234 0.86158925 0.7437601 0.6071606 0.5245325
0.51335025 0.7464824 0.5748118 0.7860466 0.58630514 0.77253646 0.5196824 0.47884306

tcn.network.0.net.0.weight_v f4 [32, 21, 8]
00000000: da22 931f 3978 0300 d797 0227 4cba dd9a
00000010: 815c 129e 9c54 af39 eda3 db36 f25b 0811
00000020: 91bc 01be 726f ffbc b395 63bd 40a0 41bd
00000030: 356e 3abe a510 183d ba55 17be 4971 a7bd
00000040: f9f2 cbbd 257f b5bd ae74 5cbe f751 de3c
00000050: 47fc 87be be3a b6bd 1f6d 91be 32d6 4abe
00000060: 37aa ecbd bdc2 0bbe 7f55 73be 0f33 c3bd
00000070: 66a2 19be 1aa9 f4bd 81b4 a9be f9b4 c3bc
00000080: 8cff f6bc a809 1ebd f3d8 9e3d 1f87 10be
00000090: a000 be3d ef92 95bd 9a3c bc3c 13de 53bd
000000a0: d80e 913c b2cb 38bd 678d 11bd c91e 63be
000000b0: 4272 563d d49e e2bd c7ae a43e feb9 113d
000000c0: ad60 c33d 378e 7c3d 01ba 693d 7773 a33d
000000d0: 4747 43bd 4c88 c93d 9396 733d a8b8 833d
000000e0: fb58 13bd 9ce6 ab3c 952f aebd 6a8c ed3d
000000f0: eee5 b93c 3bd8 2c3e c532 ab3c 4658 39bc
00000100: e9a9 65bb ffb1 353d ce99 b7bd b8d8 f9bd
00000110: 90ba 193d a643 533d 4db2 113e ff9e 9d3d
00000120: f632 06bd 85c9 f93d a849 47bc d831 e73d
00000130: f18d e6bc 9b65 123e 60f0 0d3e 9589 af3d
00000140: 4f42 c9bc 9a04 913d 69a7 ca3d af67 1e3e
00000150: 1305 8c3d d460 3cbd 4ca5 0e3e d26b 183d
00000160: ed89 d9bd ff2e 4ebd bdaa cfbd b900 60bc
00000170: ff4f 6abe 1c09 baba 9532 13be 8bc2 28bd
00000180: a7e3 843e b178 ff3d 43f8 0d3d 75f4 0fbe
00000190: e620 833e 368b 83bd 52d9 17bc 20a2 d23e
000001a0: cef5 283e af7a 52bc d96e 463d b260 443e
000001b0: 5936 d53e 7ab1 45be 3994 cb3e c4a1 e33e
000001c0: b6ca fa3d baf6 00bc 0a1b cc3d 7e26 193d
000001d0: c617 c33d 1014 24bc ec47 cc3d cfaa 1f3d
000001e0: ebb8 04bd 3f7b 71bc 80b6 9c3d 44a7 b1bc
000001f0: 76bb e33b 91ba b73d cf77 15bd f779 8bbd
00000200: 39b9 1bbe 84b1 90bd 209e b03d 51ef 07be
00000210: 6d06 743a 17d1 df3c 1f08 07be eeeb 293c
00000220: f6a5 963d db44 b7bd 5c21 f73d f78b 03bd
00000230: 0b2b 0e3e 9386 67be 53ff 923d fdf6 d4bc
00000240: 841f e4bd 11df 51bd 28ca 203e c79b f5bc
00000250: 2a67 3bbd f4c0 703d 74ac c83d d96e d8bc
00000260: f346 8f3b 2cf3 c3bc 8d4e acbd bc47 e53c
00000270: 3b53 5c3d 726f fd3b 5b82 22bd 9138 63bd
00000280: 1e82 46bd b84a 27bd 4145 a03c a770 14be
00000290: cbac d23c 0ea3 c8bd e462 39be a413 07bd
000002a0: 5d2a 621c 08c7 8b0a 1969 8b28 7461 472a
000002b0: dc39 0000 5047 6caa 3c24 90ba f28e cd92
000002c0: 3095 a4bb 27fd 33bd f016 b5bd 65e6 243d
000002d0: 81ac 14be cc4c 49bd 6315 773d 43e5 a13d
000002e0: 521d afbb 8510 9ebd ad99 b4bd e53c 8439
000002f0: 830b abbd 988c 8ebe ebff 3ebd def1 89bd
00000300: d345 e3bd 853b 83bd bc8e 2ebd 8119 54be
00000310: d9f0 58be 3df1 8e3d 786c c3bd 4917 29be
00000320: 83f1 a6bd b92d 053e b143 c73d e37b e6bd
00000330: 6911 c6bd f047 8a3e bd5e 363e c05b 073d
00000340: 7778 58bd 36a9 7abe 8e99 25be ecdd b3bd
00000350: b03d b4bd e1f4 8dbe 11bb 9fbe d927 42be
00000360: 51f3 f4bb 0904 5d3d 9fec c9bd 1f2a d23d
00000370: 7d02 91bd c6f0 87bc 87cc 23bd 2324 383c
00000380: a174 febc 2245 1e3c e00f 5a3d 8e51 dfbb
00000390: a766 593d 185b abbd cde3 efbd 3d29 ae3c
000003a0: 56d9 0c3e 327b 653d c94e e93d b5ec b93d
000003b0: 5291 223e 4728 613e e727 4c3e 5f7d 183e
000003c0: 1568 9ebd 37dd 0bbd 5ba1 dcbd 00bf f8bd
000003d0: 96d6 93bd 92bf 243d 0807 cebd 94e2 20be
000003e0: 8f38 423c 3994 833d cf86 f93c 0530 283d
000003f0: 7b31 cc3a e25c 823e 3865 083e abc0 883d
6.231458e-20 3.18634e-40 1.8123437e-15 -9.1704437e-23 -7.748305e-21 0.0003344164 6.545792e-06 1.0756841e-28
-0.12669589 -0.031181071 -0.055562686 -0.047271967 -0.18206103 0.03712525 -0.14778796 -0.08175904
-0.09958453 -0.088621415 -0.21528885 0.027138693 -0.2655966 -0.08897923 -0.28403565 -0.19808272
-0.115559034 -0.13648506 -0.23763083 -0.09531223 -0.15003356 -0.11946316 -0.33145526 -0.023890005
-0.030151151 -0.038583428 0.077562235 -0.14114045 0.09277463 -0.07303416 0.022978116 -0.05172546
0.017707273 -0.045116134 -0.035535242 -0.22179712 0.05235506 -0.1106545 0.32164595 0.035577767
0.09539924 0.061659064 0.057062153 0.079810075 -0.047675397 0.0984045 0.05946977 0.06431705
-0.03597353 0.020983987 -0.08505169 0.115990475 0.022692647 0.1687936 0.020898232 -0.01131255
-0.0035043901 0.044359203 -0.08964883 -0.12199539 0.037531435 0.051578186 0.14228173 0.07696342
-0.032763444 0.1219664 -0.012163557 0.11288804 -0.028143855 0.14296572 0.13861227 0.085711636
-0.024567751 0.07080956 0.09895212 0.1546924 0.06836905 -0.04599078 0.13930243 0.0372122
-0.106220104 -0.050337788 -0.101399876 -0.013672047 -0.22882079 -0.0014193389 -0.14374764 -0.041201156
0.25954935 0.12474192 0.03466059 -0.14058097 0.25611037 -0.06423037 -0.009268122 0.41139317
0.16500017 -0.012846633 0.048445556 0.19177511 0.41643026 -0.19305983 0.39761522 0.44459355
0.12245695 -0.007871324 0.09966095 0.037390225 0.09526019 -0.010014549 0.099746555 0.038981255
-0.032402914 -0.014738857 0.076519966 -0.021686204 0.0069498373 0.089711316 -0.03649121 -0.06810372
-0.15207376 -0.070651084 0.0862391 -0.13274886 0.0009308819 0.027321381 -0.13186692 0.010371191
0.07355873 -0.0894868 0.1206691 -0.032115903 0.13883607 -0.2260993 0.071776055 -0.02599668
-0.11138824 -0.051238123 0.15702116 -0.029981507 -0.04575268 0.058777764 0.09798518 -0.026420044
0.0043724715 -0.023919664 -0.0841342 0.027988307 0.053790312 0.0077342326 -0.039675098 -0.055473868
-0.048463933 -0.04084274 0.019564273 -0.14496098 0.02571716 -0.09796725 -0.1810413 -0.032977715
7.483188e-22 1.346008e-32 1.5477679e-14 1.7708561e-13 2.0756e-41 -2.0985752e-13 -0.0010997127 -1.2972558e-27
-0.0050226673 -0.043942597 -0.088422656 0.040258784 -0.1451893 -0.049145505 0.06032313 0.07905056
-0.0053440714 -0.077179946 -0.08818374 0.00025222372 -0.08351805 -0.2784164 -0.04663078 -0.06735586
-0.11097302 -0.06407837 -0.04261659 -0.20712854 -0.21185626 0.06979606 -0.09542173 -0.16512789
-0.081515335 0.13005723 0.09729708 -0.11254098 -0.096712895 0.2700801 0.17809577 0.033046484
-0.05284926 -0.24478611 -0.16171858 -0.087825626 -0.088008285 -0.2772589 -0.31197408 -0.18960513
-0.0074752946 0.053958926 -0.09859585 0.1026194 -0.07080553 -0.016594302 -0.039989974 0.011239084
-0.031061472 0.009660037 0.053237796 -0.006815142 0.053076413 -0.08366984 -0.117133714 0.021259898
0.13754782 0.05602569 0.1139198 0.090783514 0.15875748 0.21988021 0.19937097 0.14891575
-0.07734696 -0.034146514 -0.107729636 -0.12145805 -0.072186634 0.04022176 -0.10059935 -0.15711433
0.011854305 0.064247556 0.03045979 0.04106142 0.0015578711 0.2546149 0.13319862 0.066773735

tcn.network.0.net.4.bias f4 [32]
00000000: dab2 1e3d 5dd4 2fbc 6be1 c23d 00e6 aebb
00000010: c4f5 2ebd 185b 2dbc b778 d0bc ffd5 43bd
00000020: 8540 11bc 440c 6f3b e40d 1cbd a1fb 813c
00000030: abcf b73c 9b12 b0bc 8d76 56bc fcae d33c
00000040: f567 e33c 6e5c 6abd de58 38bc 7359 163d
00000050: ebb4 25bb 9996 803d dd78 f23d 96b9 733d
00000060: f290 773d d2e8 cabd 6e7b 7dbc 72e1 443d
00000070: 98d0 423c 7cec 1abc 0693 5c3c 103d acbd
0.038744785 -0.010731784 0.09515651 -0.0053374767 -0.04271485 -0.0105808005 -0.025448186 -0.047811504
-0.00886548 0.0036475817 -0.038099185 0.015867056 0.022437891 -0.021493247 -0.013089788 0.025840275
0.027759532 -0.057217054 -0.011251656 0.0367064 -0.0025284837 0.06278724 0.11839459 0.05950316
0.060440965 -0.09907688 -0.015471322 0.048066564 0.011890553 -0.009455796 0.0134627875 -0.08410084

tcn.network.0.net.4.weight_g f4 [32, 1, 1]
00000000: c33f 973f bd6d 473f 1a51 9f3f 71d9 8e3e
00000010: c1b6 3a3f 6fdc 143f b996 303f 8089 8f3e
00000020: 51ac 563f 67fe 983e afa4 983e 1280 6e3f
00000030: 3143 a63f e122 233f 1f43 5c3f 27b6 553f
00000040: ed1c 2c3f 3221 8c3e 7425 473f 63d1 563f
00000050: d8a0 993e 890a 8c3f 494d 683f 26fd 8f3f
00000060: ea59 693f fe64 7d3f d774 363f 78c8 453f
00000070: 68bb 273f ffdc 183f 8d65 473f b7c2 1f3f
1.1816334 0.7790182 1.2446625 0.2790027 0.7293511 0.58148855 0.68979985 0.28034592
0.83856684 0.29881594 0.29813144 0.9316417 1.2989255 0.63725096 0.8603992 0.8348107
0.6723164 0.27369076 0.77791524 0.8391325 0.30005527 1.0940715 0.9074293 1.124913
0.9115282 0.98982227 0.71272033 0.77259016 0.65520334 0.59712213 0.7788933 0.62406486

tcn.network.0.net.4.weight_v f4 [32, 32, 8]
00000000: 3822 cf3d ff2a 8f3d 8235 583d c2c7 003e
00000010: dc60 843d 8624 903e 4248 713d 35cd 583e
00000020: 7fa4 b7b9 b03d 87bd 7a26 e7bd 9232 23be
00000030: 3baf 66be c838 04be 8c70 7abe 1b33 87be
00000040: fccb 3d3d 6b40 f83c f357 da3d f0b4 e93d
00000050: 891f 1f3e 09fb 0b3d 47a0 dd3d 9ff6 ed3d
00000060: 814a 9ebd 1226 96bd 1953 963c 7255 1cbd
00000070: a36a abbd f328 b0bd ac54 f7bd 1f92 b2bd
00000080: ab47 4c3c 4ad2 2d3d b3c8 153c b28c d9bb
00000090: 0212 613d c325 ee3a 2bcc 583d 12f7 6c3d
000000a0: d658 30bd 6090 c5bd b41d d3bd 8622 58bd
000000b0: 0a3e d6bd 546a 32be 553c 0dbe 9681 0cbe
000000c0: 0be4 bf3d 70eb cf3d 1263 323e 778e 0b3e
000000d0: 3b39 3a3e e192 883e 9594 8f3e 677a b63e
000000e0: b8fb 5bbd d9f6 c9bd d4a2 52bd fd36 cc3b
000000f0: 06a8 4fbc fe98 80bd e186 eabd c3d7 85bd
00000100: 0d06 983d aefe a3bc 01fb 4dbd 930d cbbc
00000110: c240 c0bd 3307 b3bd 9074 bbbc 0a5e fbbd
00000120: d234 bbbd 9746 cdbd ae69 0dbe aed3 8dbd
00000130: 6f59 f4bd 0140 19be 321f febd 59bd 06be
00000140: 8fbb fa3c fd0b ca3d 96b4 193e a84d 3e3e
00000150: bb6f 243e 9889 573e 4eac 783e 3984 e03e
00000160: 36af 7a3d 1766 a53d 203d 163d a67a 853d
00000170: 1c25 cd3c 0d2d c53d 89ab c33c 4223 8d3e
00000180: 063f a6bd 05a0 dc3c 8718 c6bb 1df4 533c
00000190: 0712 5bbd 8a11 38bc 9b90 b63d 4d2f dbbc
000001a0: c690 8fbd 5dd2 adbd d908 96bd 8514 cabd
000001b0: 1c61 f4bd da0f b9bd dbb3 00be b39e 29bd
000001c0: 9998 003d 8203 76bc 8c6e de3d 8d99 c63d
000001d0: d03f 4f3e 1aca 2f3e 717c 003e d3c1 283e
000001e0: 8c61 b8ba deb6 bb3e 6fac ca3e 03d1 533e
000001f0: 8530 553e b2ab be3e 201b d13e d766 6a3e
00000200: 4463 efbd 91f4 0ebe 7119 1abe e294 25be
00000210: 1a06 bfbd 697b 43be ae85 3fbe 4b46 00be
00000220: c9ae 1a3c 1611 92bd fe6a fe3c 5108 bfbd
00000230: 1a4f 9d3d a069 c8bd 6597 77bd 0990 32be
00000240: c7ed 72bc ce83 e9b9 0943 0cbd 55b8 2bbc
00000250: 87e7 4aba 66d5 803d fa6b 3e3d 41b1 9a3d
00000260: 11da c03d 0a9f 5b3d d1e9 ba3d da17 083d
00000270: 766d 203e f64b a73d 92dc df3d c37d de3c
00000280: 63eb 90bd 6ee0 62bc 4466 06be 430c 1ebc
00000290: 6b98 cdbd eb6a 10bd fd1d 98bd 9ae8 fabb
000002a0: e3cd 05bd b225 e9bc e678 593d 2dd8 1c3d
000002b0: e16e 883d 8da4 84bc 3c2c 863b befd f9bd
000002c0: 2624 b0bd cc43 c0bd ab50 b1bd c984 42bd
000002d0: 010f 4cbd 65ea 23bd e538 03be 02d4 82bd
000002e0: 56b2 82bd 9347 2a3d bb2c 943c 3a9d a93d
000002f0: 05bc 94bc 6641 523d ea62 2ebe 8215 8a3d
00000300: 7297 7dbd 29f7 803c 6a74 333d 7aa9 b6bd
00000310: 7838 f33d 1fe7 113d 8bb2 7e3e 15f3 cdbd
00000320: 1408 eebd 6b7f 563d ea28 823d 648d 353d
00000330: 65b9 a2bd da58 0b3e ab69 96bd cba9 033b
00000340: 0ab4 a63c ae4e 083d b1d7 8fbd 2801 13bd
00000350: 1dcf 20bc 6766 fabc 9093 51bd dbc5 0dbd
00000360: 9ae9 6fbd cd92 a3bd 8548 65bd ec3e 16be
00000370: 8e53 1cbe f27f 9fbd fa89 43bd 4fe6 acbd
00000380: 71ae 883d 53f9 353e 23a0 7d3d b243 fbbc
00000390: 264a 963d 6049 193e 316a d03d 88e8 273e
000003a0: ff26 e2bd d6de 0e3d 1e0c 0a3e 3b07 aa3c
000003b0: 8f3d 45bb 0e3a 123e 43c1 f43d ecdc ef3d
000003c0: 0e32 3d3c 9ede c83c 1e53 09bd e394 84bd
000003d0: 9187 85bd 78d2 0fbc 4835 b63c b10f 9f3c
000003e0: add4 7a3e cce3 5f3e e40e 883e 97ed 543e
000003f0: 339f 653e f950 973e 93dd c33e 120c 1e3e
0.101139486 0.06990623 0.052785404 0.12576202 0.06463787 0.28152865 0.0589068 0.2117203
-0.0003502704 -0.06603563 -0.11286636 -0.1593726 -0.22527783 -0.12912285 -0.24456996 -0.26406178
0.046337113 0.030304154 0.10661306 0.11411464 0.15539373 0.034174953 0.10821586 0.11619305
-0.07729054 -0.0733148 0.01835017 -0.038167424 -0.08369949 -0.086015604 -0.12076697 -0.08719277
0.012468259 0.042436875 0.009142089 -0.0066390866 0.054948814 0.0018169213 0.052929085 0.057852812
-0.04305347 -0.09646678 -0.103084 -0.0527673 -0.10461052 -0.17423373 -0.13792546 -0.13721308
0.093696676 0.10152328 0.17420605 0.13628565 0.18185894 0.2667456 0.28043047 0.3564026
-0.053706855 -0.098615356 -0.051424816 0.006232141 -0.012674337 -0.06279181 -0.11451507 -0.06535294
0.07423029 -0.020018902 -0.050288204 -0.024786746 -0.093873516 -0.087416075 -0.02288273 -0.12273796
-0.09140934 -0.100232296 -0.13809845 -0.0692514 -0.119311206 -0.14965822 -0.12408294 -0.13158168
0.030607013 0.09865568 0.15010294 0.18584311 0.16058247 0.21048582 0.24284479 0.43850878
0.06120225 0.08076113 0.036679387 0.06517534 0.02504211 0.096277334 0.023885505 0.27565962
-0.081174895 0.026931772 -0.0060454044 0.012936619 -0.05348399 -0.01123465 0.089143 -0.026755953
-0.07010035 -0.08487389 -0.07325906 -0.09867195 -0.11932585 -0.090362266 -0.1256861 -0.041411113
0.03139553 -0.015015485 0.10860929 0.09697256 0.20239186 0.1716694 0.1254747 0.16480188
-0.0014067157 0.36662954 0.3958468 0.206852 0.2081929 0.37240368 0.40841007 0.22890793
-0.11688855 -0.13960482 -0.15048768 -0.16170076 -0.09327336 -0.19090046 -0.18703339 -0.12526815
0.009441086 -0.07132165 0.031056877 -0.09327758 0.07681103 -0.09785771 -0.060447115 -0.17437758
-0.014827198 -0.00044539425 -0.034243617 -0.01048096 -0.0007740189 0.062907025 0.046489693 0.0755334
0.09416593 0.05361847 0.09126628 0.03322587 0.15666756 0.08168785 0.10930742 0.027159577
-0.070761465 -0.0138474535 -0.13124949 -0.009646478 -0.10038837 -0.035258215 -0.07427595 -0.007657123
-0.032667052 -0.028460357 0.053093813 0.0382921 0.066617735 -0.016191745 0.0040946286 -0.122066006
-0.08600645 -0.09387931 -0.08657964 -0.047489915 -0.049818996 -0.040018458 -0.12814672 -0.063880935
-0.06381671 0.041572165 0.018087735 0.08281942 -0.018156061 0.0513319 -0.1702992 0.067423835
-0.061912008 0.015742855 0.043812193 -0.08919044 0.11876005 0.035620805 0.24872796 -0.1005613
-0.116226345 0.05236761 0.0635546 0.044324294 -0.079455175 0.13608113 -0.07344373 0.0020090218
0.020349521 0.03327816 -0.07023562 -0.035889775 -0.009815005 -0.030566407 -0.051166117 -0.034612518
-0.05857239 -0.079869844 -0.055977363 -0.1467244 -0.15266249 -0.077880755 -0.047739007 -0.084423654
0.06673897 0.17770891 0.061920296 -0.030671928 0.073383614 0.14969397 0.101765044 0.16397297
-0.11042594 0.03488048 0.13481185 0.0207554 -0.0030096506 0.14279959 0.11950924 0.117120594
0.0115475785 0.024520215 -0.033526532 -0.064737104 -0.06519998 -0.008778207 0.022242203 0.019416662
0.24495192 0.21864241 0.2657386 0.20793758 0.22424011 0.29553965 0.38254985 0.15434292

tcn.network.0.downsample.weight f4 [32, 21, 1]
00000000: 39c5 17bc cc73 9ebd e45a 1cbd 9972 a6bd
00000010: 295b 7ebc 4d0c 693e 282b 1bbd 2b13 9b3b
00000020: 25f1 e1bc b6aa a3bc 3cd0 f2bc 7d52 08bd
00000030: 7fcc b3bc aa60 1f3e 2a16 36bc 9666 bfbc
00000040: fa07 66bd 1fef ea3b b2bb f7ba c84e 4dbb
00000050: 6768 37bd 1641 3f3c de22 0cbd 64f0 eabc
00000060: b51e 413c e8ab 6ebc 1804 21bd 5957 01bd
00000070: 731f b0bc 40c3 2fbd 36bc 9fbc 05aa f9bc
00000080: c1ae cdbc 364b 76bb 0587 9cbd be17 e9bc
00000090: 6b1b c1bc 125b 14bc 675b c83c fab2 193c
000000a0: 966d 00bd f7b4 aebc a7bb 953b ff1a 8abd
000000b0: 4d7a 5dbd 4d2e 74bd c9ce 62bd f635 6b3c
000000c0: 373b 02bd 13c2 9c3b 7f3e bbbc 0b16 13bc
000000d0: 301b 49bc 5ca1 54bd 6b26 e9bc fb58 00bd
000000e0: 59ed 5dbb 7ba7 94bb 01f2 18bc eea6 96bc
000000f0: aed7 88bc a71e 3a3d c0d2 72bd e914 33ba
00000100: 9d07 90ba ea35 46bc 1df9 363c f4d5 f63b
00000110: 6bec 06ba e22b 0bba 2165 36bc 5646 e73a
00000120: beaf 313b cbc6 64bc 6589 52bc af33 26bc
00000130: 91f2 38bb a46e 4c3c 8617 273b 3f02 003c
00000140: 8d98 5b3b f50c 053b e312 61bc 4985 6fbb
00000150: 4fcf d2b8 0ab1 14bd e38f 4fbd 985d cabc
00000160: 6e51 64bd 52af 98bd 7e3d 34bd 3035 82bd
00000170: aae8 8abd 230a 35bd c4f6 a9bd 1cac 113d
00000180: a410 5f3c 5a53 d8bd 8156 86bd a489 37bd
00000190: 9a29 f0bb 722a e6bd e23d 50bd c862 8abd
000001a0: 390d c3bc 6713 b53b b44f 0c3c 160d 89bc
000001b0: dee4 793a b193 8fbc b33c 99bb 04bd e9ba
000001c0: 5266 593c d38b 943c 578c 883c 9fb5 edba
000001d0: 3b08 ee3b 96f7 c43c 0092 253d 3aeb cf3c
000001e0: ecc5 10bc 5430 e8bc 74b2 9d3b e735 e93c
000001f0: e48b 733c 452e e6ba 72b8 1a3c 6d3b 283d
00000200: 669e 663c c546 173d 7fa6 863d 3d93 d03c
00000210: dd36 c23c 5d22 50bc 9933 ff3b 75e9 163c
00000220: f78e 5f3b e56b a63c 0296 183c 9d2c 2c3d
00000230: 93a9 26bc e346 ed3c b3fc 9d3c 22e7 a23c
00000240: 11cc 7bba e64c 3a3c 0328 2e3c ddd9 06bc
00000250: 9774 5fbc 3043 483a 6337 2b3c 2e2a 6bbc
00000260: a8ce 293c d835 65bc 774b 303d d5db 9bbc
00000270: 3cd6 8fbb 97b3 2abb 494d 5e3b 7449 713c
00000280: 37b5 5e3b 9a02 343c f3a7 e5bc aafd 30bb
00000290: e10f 2cbb 1503 c5bc d923 dd38 e406 e8bc
000002a0: 42c4 893b b633 a9bd 8815 7fbd 3ff2 a7bd
000002b0: 808c a4bd 3f90 6abd c1d0 1cbd 2726 8abd
000002c0: e4df 6cbc f4d9 23bd 323c 66bd 2787 9bbd
000002d0: e6f4 ffbd 1233 babd 2d32 20bd d45c 32bd
000002e0: a9a2 0dbd 445d 693d 5779 b1bd 781c a5bd
000002f0: 90fe 82bd 859d 79ba 45cc a3bb e474 74bc
00000300: d88e 6eba b7c6 053b feae fa3b 7dec eabb
00000310: 5a2d a7ba 7a60 653b 6e6c 06bb b49c 48bc
00000320: bf0d 333c f448 903b 7ecd 353b fb63 8cbb
00000330: f356 b33b 74b7 23bc da6a 07bc ac4d 45b8
00000340: 8b88 34ba 3567 2bbb a82c f33b 0b5a 6dbd
00000350: 0f04 aebd 2b86 82bd f3ca 77bd 56b3 8dbd
00000360: 5af8 7abd a9a4 89bd ea38 7fbd 035c 91bd
00000370: cf08 9ebd e462 76bd b94c 92bd 70d6 93bd
00000380: 7d91 b1bd 679e 81bd f44a 74bd 680c ef3d
00000390: 9512 6dbd 902b 75bd 6fd0 0f3e 13ff 1c3b
000003a0: 5261 c53b c6a4 5d3c b84f 123d 3deb 4bbd
000003b0: c67b 20bc ba39 8fbc 3988 39bc 1a44 05bc
000003c0: 0421 54bb a58a 16bd 4634 a63c f889 84bc
000003d0: 9324 0f3d 0244 323b 6952 86bc 2ab8 c43c
000003e0: c570 d3bc f46d 66bc af10 b2bb 0e80 b9ba
000003f0: eeed c0b8 10f1 61bd 722c 73bd c999 45bd
-0.00926333 -0.0773693 -0.038172618 -0.081273265 -0.015524664 0.22758599 -0.037882954 0.0047325096
-0.027580807 -0.019978862 -0.02964031 -0.033281792 -0.021948097 0.15564218 -0.011113683 -0.023364346
-0.05615995 0.0071696187 -0.0018900542 -0.0031327475 -0.0447773 0.011673233 -0.03421294 -0.02867908
0.011787106 -0.014567353 -0.039310545 -0.03157744 -0.021499371 -0.042910814 -0.019498926 -0.03047658
-0.025107743 -0.003758145 -0.076429404 -0.028453704 -0.023572644 -0.009054916 0.024457647 0.00938105
-0.03135451 -0.021326525 0.004569489 -0.0674343 -0.054071713 -0.05961447 -0.055372987 0.014356127
-0.031794753 0.0047838776 -0.022856949 -0.008977423 -0.012274548 -0.051911697 -0.028460702 -0.03133486
-0.0033863394 -0.004536567 -0.009335042 -0.018390145 -0.016704407 0.04543939 -0.059283018 -0.0006831424
-0.0010988597 -0.012097815 0.011167792 0.0075328294 -0.00051469234 -0.0005308968 -0.011132509 0.0017644863
0.0027112807 -0.013963412 -0.01285014 -0.010144158 -0.0028220753 0.012477551 0.0025496199 0.0078130355
0.0033507675 0.0020301912 -0.013737413 -0.003654795 -0.000100521946 -0.03630165 -0.05067433 -0.024702832
-0.05574172 -0.07455315 -0.044003956 -0.06357801 -0.067826584 -0.04419912 -0.0829902 0.035564527
0.013614807 -0.10562773 -0.06559468 -0.044809 -0.007329178 -0.112385646 -0.050840266 -0.06757122
-0.023810016 0.0055259946 0.008563925 -0.016729873 0.00095327 -0.01752648 -0.0046764254 -0.001783282
0.013269024 0.01813308 0.016668482 -0.0018135792 0.0072641647 0.02404384 0.04042244 0.02538072
-0.008836251 -0.028343357 0.004812533 0.028468085 0.0148648955 -0.0017561397 0.009443389 0.041072298
0.014075851 0.036932725 0.06574725 0.025460834 0.023707801 -0.012703505 0.0077881333 0.009210934
0.0034112313 0.02031512 0.009313108 0.042034734 -0.010172266 0.028964465 0.019285535 0.019885603
-0.00096052984 0.011370873 0.010629657 -0.008230654 -0.013638637 0.0007639406 0.010450217 -0.014353318
0.010364212 -0.013989888 0.04304072 -0.019025723 -0.0043895524 -0.0026046985 0.0033920577 0.014726985
0.0033982524 0.010986948 -0.028034186 -0.0027006664 -0.0026254582 -0.024049321 0.00010544778 -0.028323598
0.004204304 -0.08261816 -0.062276393 -0.08200502 -0.08034611 -0.05726647 -0.03828502 -0.06745558
-0.014457677 -0.04000278 -0.05620975 -0.07594138 -0.124978825 -0.09091772 -0.03911035 -0.04354556
-0.034578953 0.05697371 -0.08665722 -0.080620706 -0.0639621 -0.00095220684 -0.004998716 -0.014920447
-0.0009100265 0.0020412633 0.007650255 -0.007169305 -0.0012754605 0.0035000131 -0.0020511406 -0.012244392
0.01092857 0.004403228 0.002774089 -0.0042843795 0.0054730116 -0.009992469 -0.0082652215 -4.7040798e-05
-0.00068868016 -0.0026154045 0.007421095 -0.0579472 -0.08496868 -0.06373247 -0.06049628 -0.06918971
-0.061272003 -0.067208596 -0.062310137 -0.07097628 -0.07716524 -0.060152903 -0.0714354 -0.07218635
-0.08670328 -0.06329041 -0.059641793 0.11672288 -0.05787905 -0.059855998 0.14044355 0.0023955747
0.0060235644 0.013528055 0.035720557 -0.049784888 -0.009795135 -0.01748358 -0.011323982 -0.008133912
-0.0032368312 -0.036753315 0.020288598 -0.01617907 0.03494699 0.002720118 -0.016396718 0.024013598
-0.025810609 -0.014064301 -0.0054341177 -0.0014152543 -9.199591e-05 -0.055161536 -0.05936856 -0.048242364

tcn.network.0.downsample.bias f4 [32]
00000000: 1b0c 46ba 0c5d 903c c17d e23a fd92 eabd
00000010: 2263 863c 3a98 16bd 3a1f 32bd 5771 4cbd
00000020: 5200 fd3c 0362 f6bd f6f1 543d b815 98bc
00000030: 935f 3c3d e551 c9bb a976 93bc fcc7 14bd
00000040: 1d7d 8cbd 9558 f53c 0c2f 9c3c 7fed 62bd
00000050: 7e88 a9bd 3d6d f63b 2c83 253d 5073 413d
00000060: d23f 2f3c b394 07bc f31b f0bb aa35 d63c
00000070: 2416 56bd fadb 83bd 8b2f 14bd dd73 ba3c
-0.00075549044 0.017622493 0.0017279909 -0.11453817 0.016404692 -0.03676627 -0.04348681 -0.049912777
0.030883942 -0.12030413 0.051988564 -0.018565044 0.045989584 -0.006143796 -0.018000918 -0.036323532
-0.06859801 0.029949466 0.019065402 -0.055402275 -0.08277987 0.0075203464 0.0404083 0.04722911
0.010696368 -0.008275199 -0.0073275506 0.026148636 -0.05226721 -0.064384416 -0.036178153 0.022760326

tcn.network.1.conv1.bias f4 [32]
00000000: 8068 16bd f526 13bd 2283 fc3c 81a8 c23c
00000010: 73dc 393c 9608 433b f035 213c a706 0b3d
00000020: 96ed 01bd 41f9 b0bc dc33 043d 09ca 01bd
00000030: 7d2c ecba 7ee4 bebd e92c 05bd 0c38 0b3d
00000040: 99c1 f2bc d6ec 8c3d a703 bf3c 3171 15bd
00000050: 36d4 14bc c321 52bc 4041 e6bd efaa 0cbc
00000060: 48f1 873d c235 413c d109 193d 11bf 48bc
00000070: 6000 31bd fdce 8dbc d718 1abd 910c 423d
-0.036720753 -0.035925824 0.030824248 0.02376199 0.011344063 0.0029759756 0.00983952 0.03394189
-0.03172072 -0.021603229 0.03227602 -0.031686816 -0.001801863 -0.09320925 -0.032513533 0.033988997
-0.02963333 0.0688111 0.023317171 -0.0364849 -0.009083798 -0.012825432 -0.11242914 -0.008585676
0.066378176 0.011792602 0.037362877 -0.012252585 -0.04321325 -0.017310614 -0.037621345 0.047375266

tcn.network.1.conv1.weight_g f4 [32, 1, 1]
00000000: d8e8 ff3e 0656 923e 2c59 5b3f da98 153f
00000010: 36f5 523f 7a3e 8a3f 2893 8e3f a12d 853f
00000020: 930a 853f da96 1d3f f29c 6a3f 14ef 953e
00000030: 95af 073f 1b7f 0f3f fa24 9e3e 6f0d 543f
00000040: b110 393f 60e7 993f a17a 173f d040 a33f
00000050: e83a 0e3f 3f86 973f 14ae 933f dcaf 973e
00000060: ac3e 923f 790e dc3f 1fcd 783f f368 973e
00000070: 6e2d 923e 55dd ff3e bfa5 393f 7195 c23f
0.49982333 0.28581256 0.8568294 0.5843636 0.8240541 1.0800316 1.1138659 1.040455
1.0393852 0.61558306 0.9164573 0.29283965 0.5300229 0.5605332 0.30887586 0.82833
0.72291094 1.2023735 0.5917149 1.2754154 0.55558634 1.1837844 1.15375 0.29626358
1.1425376 1.7191917 0.9718799 0.29572257 0.28550285 0.4997355 0.72518533 1.5201856

tcn.network.1.conv1.weight_v f4 [32, 32, 8]
00000000: f374 aabd 38a5 49bd eadd 2bbd 1e12 d63c
00000010: bd1c 153c a433 92bb 161b 5abd 7e94 9fbd
00000020: 82ca 0abc 73b9 7e3d 0fc0 b93d 7123 bb3d
00000030: 56e0 823d e0b7 673d 80f5 ce3d 21c4 7c3d
00000040: 901e 143e 4724 3d3e 0a16 823d 92f2 093e
00000050: f1ae 103d 7498 183e badc df3d d884 bb3e
00000060: fad4 4690 681f 31b6 1d7d a198 6ba9 bcb6
00000070: 8c89 b838 60a6 ad27 039f 73a8 4300 0180
00000080: f3b0 9e3e 081f eb3d 349d d33b 1054 0c3c
00000090: 568c 6e3d df4a 163e 1bd5 383e 2003 913e
000000a0: 52ec 2a3c 72c1 07bd a8a7 403c e038 62bb
000000b0: 4d11 f53c da0b df3b 32ad 3f3d 5591 863d
000000c0: 7e1e 2b3e 9587 8f3d d739 f63d ca73 ac3d
000000d0: 62d0 ca3d aeca 6e3c 8cce 6b3d 3ae3 433d
000000e0: 261a a89b 34fa 8dad e6cf 6a37 acf8 84b5
000000f0: 4422 9716 f786 9735 2142 049a 0caf dc24
00000100: 7be1 cfbd e46c 8bbd ca8c 21bd 26db 94bd
00000110: 6426 93bd 5d40 cbbd 7cd1 ecbd 1e1f 36be
00000120: ca2e 7731 192e 1f8c e34f a035 3499 4fb5
00000130: 6488 2ba9 d56a 0380 f8bb ad97 f14a 5f9e
00000140: 3ad6 a7bd 7ac3 41bd a5a8 bdbd c0ef 80bd
00000150: ad4d b2bd e8dd 8fbd 2043 0abd 534f 4a3d
00000160: 70a1 01be d06d eabd 1522 6dbd 4807 55bc
00000170: 511e 7e3d 69be 603c bb62 9a3b f8b5 99bd
00000180: c8be 653d d052 d93b 8a33 ec3b ab66 0abc
00000190: 3306 5a3d c8a3 093d c9e2 dd3d 8f40 1a3e
000001a0: 1c50 503d ae97 dcba d023 813c c0ff c9bc
000001b0: d2a3 11bb 5013 1dbd ef54 ec3b 5e1a dc3b
000001c0: eaf8 453d 54dd 043c 5cee 673d 4067 ac3c
000001d0: bd11 ac3d d849 f33c 1a71 b63d 38a8 293d
000001e0: ffa4 013d 8216 1b3d de84 583d caf7 563d
000001f0: 83e8 163d 3cca 703d 75a6 663d 5b65 303e
00000200: 0271 a63c dbba d8bb d579 e73a b6db 99bb
00000210: 829d 6c3b 05e7 24bd 301d debc 5302 a63b
00000220: 6a5b 85bc 8845 f93d 0513 b83d 6ed5 533d
00000230: bf18 363e ed34 373e 381f 2a3e ed8b 513e
00000240: f82e debd b375 a6bd b577 36bd 43ca 43bd
00000250: 2267 5a3b 47b2 dfbc 7240 88bb eeac 92bd
00000260: 5462 c13d 3f3f bd3d d716 323d 5042 b63d
00000270: 2a12 1a3d 22a4 cf3d 47c7 a63d 8364 873e
00000280: 8864 9b1d 80e0 6fbb 812b 92a2 d596 4f89
00000290: 0479 2ab5 3663 2eb5 8ba5 ebb7 eb28 e8ba
000002a0: 6f35 f0bc fe62 4c3d 1378 85bc 4b2d 0e3d
000002b0: 7e81 80bc a5a2 7a3d ae30 42bc 004a 983c
000002c0: 05c6 553d be25 e83d ad82 443d ae02 c53d
000002d0: 087e 363d c5cb 063e f72b 713d e445 d03d
000002e0: 00ee 64be fd4e 5dbe 89fe f5bd fab5 fdbd
000002f0: a2d9 debc f149 e0bd 11a8 b8bd 9b69 62be
00000300: 4eb7 7fbd aaa5 14ba ade9 6ebd ed66 31bd
00000310: ed73 9dbd 78ce 24bd a855 f93b 24fa e83d
00000320: 2b68 bd3e ba1e 8c3e c731 c63d 70a8 cd3d
00000330: af0a 113c 7246 e43d d85e a93d eb86 603e
00000340: 4eba d2bd c44d eabd 4a98 aebd 08bc b5bd
00000350: 5f69 68bd 60d2 8cbd b5a9 40bd b28f 42bd
00000360: cc9e 123d 6a67 853d bf34 713b 34ba 273d
00000370: 5c81 df3a df6a 4d3d 373e a33d a44c 323e
00000380: 37da 103e b379 9b3d c256 893d 44af 3f3d
00000390: ba31 aa3d 3cb1 e73d 4f25 503e d1bc ac3e
000003a0: 3d02 353d d1ca a43b e845 093d d5aa 103d
000003b0: e9f6 9f3d 8c42 8d3d 9ea4 be3d 08e2 a53d
000003c0: dd04 01be 8a38 10be 60e3 ccbd e780 a5bd
000003d0: 3c52 81bc 0d45 7bbd 43bd 4bbd 846d b6bd
000003e0: b2e6 6f3e fabf 4f3e 5ee0 22bd 3d84 553c
000003f0: fbcc 85bd 641c 2b3d 8c96 c8b9 d83c 503e
-0.083230875 -0.04922983 -0.04195968 0.026131686 0.00910109 -0.0044617224 -0.053248487 -0.077919945
-0.008471133 0.062188577 0.090698354 0.09137619 0.06390445 0.05657184 0.10105419 0.06171048
0.14464784 0.1847087 0.0635186 0.1347144 0.035323087 0.14901906 0.10930772 0.3662479
-3.9212686e-29 -2.6393336e-06 -4.1743857e-24 -5.6225595e-06 8.799424e-05 4.819753e-15 -1.352369e-14 -9.193e-41
0.30994377 0.11480528 0.006457949 0.008564964 0.058239304 0.14676999 0.18050043 0.28322697
0.01043232 -0.03314347 0.011758722 -0.0034518763 0.029915476 0.0068068327 0.04679603 0.06570689
0.1671085 0.07008282 0.12022751 0.084205225 0.09903027 0.01457469 0.057570025 0.047824122
-2.7810167e-22 -1.6140957e-11 1.3995892e-05 -9.907139e-07 2.441699e-25 1.1289657e-06 -2.735038e-23 9.570633e-17
-0.10150429 -0.068078786 -0.039440908 -0.07268362 -0.07185057 -0.09924386 -0.115633935 -0.17785308
3.5969827e-09 -1.2262786e-31 1.1944179e-06 -7.733645e-07 -3.8087927e-14 -3.1383e-40 -1.1227313e-24 -1.1821019e-20
-0.08195157 -0.04730556 -0.09260682 -0.06295729 -0.08706222 -0.07024747 -0.03375542 0.049392056
-0.1265924 -0.11446726 -0.05789383 -0.013002224 0.06204063 0.013717272 0.0047114766 -0.07505411
0.056090146 0.0066321865 0.0072082924 -0.0084473295 0.05322857 0.03360346 0.108342715 0.1506369
0.05085765 -0.0016829872 0.015764147 -0.024658084 -0.0022222889 -0.038348496 0.0072122733 0.0067170104
0.048333086 0.008109409 0.0566238 0.021045327 0.08401821 0.029698297 0.08908291 0.04142019
0.031651493 0.037863262 0.052861087 0.052482404 0.036842834 0.058786616 0.05631109 0.17226164
0.020317558 -0.006614072 0.001766021 -0.004695381 0.0036104624 -0.04025938 -0.027113527 0.005066195
-0.016278941 0.12171465 0.08988003 0.051717214 0.17782877 0.17891283 0.16613472 0.20463534
-0.10848802 -0.08127918 -0.044547755 -0.047800314 0.0033325632 -0.027306689 -0.004158073 -0.0716189
0.09442583 0.09240579 0.043478813 0.08899367 0.03761498 0.10138728 0.08143478 0.26443872
4.1132105e-21 -0.0036602318 -3.961944e-18 -2.498764e-33 -6.3506036e-07 -6.496442e-07 -2.809127e-05 -0.001771239
-0.029322354 0.049899094 -0.016292607 0.034711163 -0.015686747 0.061190266 -0.011852426 0.018589973
0.0521908 0.11335324 0.047976185 0.09619652 0.044553787 0.1316367 0.05887982 0.101695806
-0.22356415 -0.21612163 -0.12011439 -0.12388225 -0.027203385 -0.10951603 -0.09016431 -0.22110598
-0.062430672 -0.0005670438 -0.05832832 -0.04331105 -0.07688127 -0.040235966 0.007609088 0.113758355
0.36993536 0.27367193 0.09677463 0.100418925 0.008852645 0.11146249 0.08270043 0.21926467
-0.10289441 -0.11440614 -0.085251406 -0.08873755 -0.056741115 -0.06876063 -0.047036845 -0.04750032
0.03579597 0.06513865 0.003680512 0.04094906 0.0017052102 0.05015075 0.07970851 0.17412049
0.14145742 0.07591572 0.06706001 0.046798006 0.08310266 0.11313102 0.20326732 0.33737805
0.044191588 0.0050290604 0.033513933 0.035319168 0.07810766 0.068974584 0.09308742 0.08099753
-0.12599511 -0.14084068 -0.10004306 -0.08081227 -0.015786283 -0.06134515 -0.04974104 -0.08907607
0.23427847 0.20288077 -0.039764754 0.013032016 -0.065332375 0.041775122 -0.0003825914 0.2033571

tcn.network.1.conv2.bias f4 [32]
00000000: 8918 643d 995c 003d e4d1 83bd f262 053c
00000010: 5703 24bc 08d7 75bc 22ec cf3c b85f b93d
00000020: 983e b3bc 8af5 6f3d d6a5 0cbe 7b71 473d
00000030: 3c54 ca3c d22b dd3c 123a 58bd e58e 783d
00000040: fdcd 183d ff51 223c 94e3 b2bc a614 6cbc
00000050: da39 d4bc c4e7 9dbd 8bef 7bbc d0da 603d
00000060: 7c50 fa38 ac84 34bd a22d dbbd f764 833c
00000070: 38b4 263d 2bb2 5f3d e7a7 5539 ab8d a1bd
0.05568746 0.031338308 -0.06436518 0.008141266 -0.010010562 -0.015004881 0.025381152 0.0905146
-0.021880433 0.058583774 -0.13735136 0.048692208 0.02469837 0.026998434 -0.052789755 0.06068315
0.03730582 0.009907245 -0.021837033 -0.01440922 -0.025906492 -0.077102214 -0.015376936 0.054896176
0.0001193592 -0.04407184 -0.10702063 0.016039355 0.040699214 0.054613274 0.00020375811 -0.07888349

tcn.network.1.conv2.weight_g f4 [32, 1, 1]
00000000: 2540 223f 0418 a53f d246 1f3f 063f 733f
00000010: 0d79 0d3f 03ce 2e3f 4bdc 4e3f 884d 983f
00000020: 7eb9 4e3f 28ec b43f 95ad 1f3f f43c 723f
00000030: 7f4a 933f 7b23 b13f 9711 253f 4288 a13f
00000040: b79c 113f 8cbb 3e3f eeeb a03e 514c 023f
00000050: 82f0 2c3f d0af 153f 53e4 3a3f 99e1 273f
00000060: aa55 523f 46a6 143f 55be 373f 3fad 7d3f
00000070: 8212 c33f fd41 533f 46b3 3a3f 0d01 0c3f
0.63379127 1.2897954 0.6221744 0.9501804 0.55262834 0.682831 0.8080489 1.1898661
0.8075179 1.4134569 0.6237424 0.9462426 1.1507109 1.3838953 0.64479965 1.2619708
0.5687975 0.74504924 0.3143 0.508977 0.67554486 0.58471394 0.73004645 0.6557861
0.82161963 0.58066213 0.717748 0.9909248 1.5240023 0.82522565 0.729298 0.54689103
