weights/geneTCN_protozoa.pt (torch, 322145 bytes, 63 tensors)

tcn.network.0.conv1.bias f4 [32]
-0.07701326 -0.022616163 -0.09500269 0.026616238 0.012976664 -0.046423215 0.10781419 0.0127450535
-0.05759034 0.019220447 -0.08178033 -0.04982158 -0.14286642 -0.13229588 0.023920443 -0.014989293
-0.105697304 -0.094926536 -0.22053835 -0.059109144 -0.10251945 0.081931315 -0.04702995 -0.12021021
0.047710218 -0.050801005 0.043712996 0.058839172 -0.11676509 -0.04779851 0.09223616 -0.007456416
00000000: 21b9 9dbd 8845 b9bc c590 c2bd 4c0a da3c
00000010: 139c 543c 4526 3ebd b0cd dc3d a1d0 503c
00000020: d9e3 6bbd 3374 9d3c 727c a7bd b711 4cbd
00000030: 934b 12be 9278 07be cef4 c33c a795 75bc
00000040: d477 d8bd d868 c2bd ced4 61be 6e1c 72bd
00000050: b8f5 d1bd 9bcb a73d 7aa2 40bd c530 f6bd
00000060: ca6b 433d b714 50bd 660c 333d 5801 713d
00000070: 8922 efbd 5fc8 43bd 50e6 bc3d f354 f4bb

tcn.network.0.conv1.weight_g f4 [32, 1, 1]
0.8620537 0.629705 0.63052106 0.60736746 0.6625355 0.68225825 0.63972783 0.698174
0.6693668 0.8799409 0.6072009 0.7376885 0.6863128 0.7494964 0.6386409 0.619712
0.91561055 0.63388246 0.8588504 0.5184278 0.7933275 0.8484124 0.7424082 0.7172834
0.6400504 0.61515737 0.8134963 0.91902447 0.6684634 0.7768662 1.187632 0.7452639
00000000: 8daf 5c3f 5934 213f d469 213f 6f7c 1b3f
00000010: ed9b 293f 7aa8 2e3f 34c5 233f 88bb 323f
00000020: 9f5b 2b3f cf43 613f 8571 1b3f 27d9 3c3f
00000030: 32b2 2f3f ffde 3f3f f87d 233f 72a5 1e3f
00000040: 7465 6a3f 1f46 223f 9fdd 5b3f afb7 043f
00000050: 8317 4b3f 8e31 593f 770e 3e3f e39f 373f
00000060: 58da 233f f47a 1d3f 4b41 503f 3045 6b3f
00000070: 6b20 2b3f b4e0 463f 5304 983f 9dc9 3e3f

tcn.network.0.conv1.weight_v f4 [32, 4, 8]
0.07285711 -0.014781587 -0.09496876 -0.07093965 0.035103425 0.0035471618 -0.12247359 -0.012508973
-0.16360103 0.015742019 0.12463999 0.0963792 0.19296698 0.015458005 0.113028355 0.0027042893
-0.02334045 0.04240472 -0.1866485 -0.2206768 -0.08856608 -0.009935312 -0.15437265 0.07738398
0.030839454 -0.123967096 0.07112235 0.16701408 -0.26906934 -0.004805087 -0.0005521999 -0.17067218
-0.07331897 -0.045291737 0.0014792869 0.021560378 -0.02139443 -0.10861763 -0.022136372 -0.024836157
-0.03574884 0.03763849 0.094348766 -0.04079689 -0.20174056 -0.021940392 0.03265542 0.012613683
0.02656847 -0.0009678096 -0.14081515 0.16226533 0.18172182 0.005160836 -0.054363806 -0.089292005
0.013462623 0.02711034 -0.16981398 -0.17523807 -0.06350093 -0.025580151 0.06944217 -0.07966251
0.03460368 0.00038320315 0.022629084 -0.039594043 0.066221066 0.08382661 0.06244629 -0.016056694
0.08106938 -0.19137594 0.13679789 0.015354276 -0.044637874 -0.14665598 0.0019607535 0.0040011792
-0.040417783 -0.09778808 -0.082807906 -0.13090901 0.053892247 -0.047807366 -0.16257516 -0.19447717
-0.074264064 0.19605266 -0.059794784 0.18893766 -0.15440601 0.09686582 -0.03922482 -0.0867317
-0.08711993 0.015779333 -0.015026861 0.034529045 0.044675946 -0.078850254 0.22089954 -0.18181688
0.027465258 -0.15009637 -0.08818047 -0.20062564 -0.07232034 -0.04056658 -0.06803004 7.556754e-05
0.116890445 -0.09119877 0.15924896 0.021113351 0.037875637 0.10332275 0.01827635 0.09916177
-0.12134606 -0.07391675 -0.02054945 0.019244196 -0.22524466 0.06568235 -0.22438753 0.08749503
-0.05870887 -0.011554329 -0.038954016 0.07868688 0.014324893 -0.028385658 0.028952703 0.11624766
-0.013424759 0.05269819 0.0020527707 -0.05108636 0.069264024 -0.23993169 0.020976095 -0.051058553
-0.051919173 0.035223935 0.09032014 -0.043895543 -0.13479733 0.021844106 0.12629588 -0.20690396
-0.04104023 0.022120807 -0.016096909 -0.13621554 -0.0017209327 0.14362091 -0.2325133 -0.11834823
-0.026300507 0.021250226 0.0050070025 -0.06358609 -0.014801471 -0.1032914 -0.044430725 0.08868309
-0.004747766 0.017071497 -0.047806814 0.0040624775 -0.017228853 -0.19964354 -0.14761642 -0.0931547
-0.022622067 -0.0365603 -0.03786047 0.029272098 -0.06697256 -0.11262764 0.2419249 -0.06772864
0.037873328 0.03328773 -0.051744968 0.011147047 -0.0041745347 0.20692879 -0.15206908 -0.06033667
0.032064784 -0.2100461 0.114170864 -0.11879798 -0.020033307 0.07362151 0.0013076675 -0.0016436183
0.19753966 0.028951 -0.11149241 0.077766694 0.052597966 0.031449 0.09284882 0.16610406
0.06013641 0.098267466 -0.13365367 -0.18914191 -0.16319093 -0.058465485 -0.1212133 0.02500332
-0.16665296 -0.1693828 -0.09116318 0.004595914 -0.1547288 -0.02344271 -0.041923855 -0.19099928
-0.008776356 -0.19330804 -0.10237156 -0.0075355405 -0.028012564 -0.11958213 -0.023162287 0.17802088
-0.005689487 0.12645239 0.03784333 -0.012658775 0.064184815 -0.0034991147 -0.17199007 -0.12572065
-0.12690262 -0.042618964 -0.02759664 0.010190174 -0.14213835 -0.07640969 0.066454075 0.02041621
0.071156636 0.04717806 0.08165106 0.04372278 -0.038534146 0.05465529 0.038772564 -0.11532057
00000000: 1c36 953d 782e 72bc fb7e c2bd cf48 91bd
00000010: 9cc8 0f3d 8077 683b 6fd3 fabd 6ff2 4cbc
00000020: 0787 27be 68f5 803c 4043 ff3d 7562 c53d
00000030: 2399 453e 9243 7d3c 697b e73d 723a 313b
00000040: 7934 bfbc 92b0 2d3d c920 3fbe 19f9 61be
00000050: 2262 b5bd b8c7 22bc dd13 1ebe 7e7b 9e3d
00000060: 06a3 fc3c 76e2 fdbd 98a8 913d bd05 2b3e
00000070: 75c3 89be fe73 9dbb 82c1 10ba b0c4 2ebe
00000080: 4228 96bd d483 39bd a2e4 c13a 649f b03c
00000090: 5f43 afbc ec72 debd 5657 b5bc 3275 cbbc
000000a0: 606d 12bd d12a 1a3d ed39 c13d a41a 27bd
000000b0: 1495 4ebe 56bc b3bc b1c1 053d 9fa9 4e3c
000000c0: 1fa6 d93c 9ab4 7dba d931 10be e228 263e
000000d0: 4915 3a3e 3b1c a93b 95ac 5ebd bade b6bd
000000e0: 5592 5c3c 8116 de3c b7e3 2dbe 9c71 33be
000000f0: c70c 82bd 778d d1bc b237 8e3d 1926 a3bd
00000100: 97bc 0d3d a8e8 c839 a160 b93c 5d2d 22bd
00000110: e99e 873d 49ad ab3d aec7 7f3d 5489 83bc
00000120: b407 a63d 0ef8 43be bf14 0c3e 8090 7b3c
00000130: 34d6 36bd fc2c 16be fc7f 003b 531c 833b
00000140: 1e8d 25bd 1e45 c8bd 3197 a9bd 030d 06be
00000150: 1ebe 5c3d a8d1 43bd 1a7a 26be 0625 47be
00000160: c217 98bd 07c2 483e 60eb 74bd e078 413e
00000170: 9c1c 1ebe 9661 c63d 34aa 20bd 64a0 b1bd
00000180: ef6b b2bd a943 813c 3933 76bc 546e 0d3d
00000190: 20fe 363d 3e7c a1bd 7d33 623e 342e 3abe
000001a0: d2fe e03c ddb2 19be f697 b4bd cf70 4dbe
000001b0: b01c 94bd 2429 26bd 5553 8bbd 047a 9e38
000001c0: 4264 ef3d 6cc6 babd 2912 233e e8f5 ac3c
000001d0: 7c23 1b3d e19a d33d 49b8 953c 5315 cb3d
000001e0: 4884 f8bd aa61 97bd 5257 a8bc 01a6 9d3c
000001f0: 89a6 66be 7884 863d d8c5 65be 9830 b33d
00000200: b678 70bd 5e4e 3dbc 3f8e 1fbd 9626 a13d
00000210: f5b2 6a3c 0a89 e8bc 382e ed3c 4113 ee3d
00000220: 85f3 5bbc 0fda 573d c787 063b ee3f 51bd
00000230: 4cda 8d3d a7b0 75be 0fd6 ab3c c622 51bd
00000240: 33a9 54bd f946 103d c4f9 b83d d0cb 33bd
00000250: 5008 0abe 69f2 b23c b553 013e a2de 53be
00000260: cd19 28bd b236 b53c aadd 83bc 167c 0bbe
00000270: eb90 e1ba 5c11 133e f717 6ebe 8f60 f2bd
00000280: 2974 d7bc f414 ae3c c811 a43b 6d39 82bd
00000290: de81 72bc 718a d3bd fefc 35bd 7b9f b53d
000002a0: 2693 9bbb 86d9 8b3c 14d1 43bd 881e 853b
000002b0: 8623 8dbc 5b6f 4cbe c228 17be e4c7 bebd
000002c0: ea51 b9bc 41c0 15bd 9513 1bbd 0acc ef3c
000002d0: e928 89bd 52a9 e6bd 29bb 773e 50b5 8abd
000002e0: 1021 1b3d b758 083d 88f2 53bd 1ba2 363c
000002f0: 89ca 88bb 24e5 533e ffb7 1bbe 9623 77bd
00000300: 5d56 033d 5316 57be 6ad2 e93d 5b4c f3bd
00000310: e41c a4bc e0c6 963d 0a66 ab3a ae6e d7ba
00000320: d647 4a3e a62a ed3c 2256 e4bd 2544 9f3d
00000330: f770 573d abd0 003d 8627 be3d 2f17 2a3e
00000340: 9951 763d 7440 c93d 82dc 08be 6bae 41be
00000350: 861b 27be 8179 6fbd ae3e f8bd c3d3 cc3c
00000360: 13a7 2abe af72 2dbe c3b3 babd 5299 963b
00000370: 3a71 1ebe ed0a c0bc 59b8 2bbd 5195 43be
00000380: b4ca 0fbc 8bf2 45be 2ea8 d1bd b2ec f6bb
00000390: 9b7a e5bc 7ae7 f4bd d6be bdbc 1b4b 363e
000003a0: e06e babb bc7c 013e 9c01 1b3d c066 4fbc
000003b0: 5473 833d 6751 65bb 2a1e 30be eabc 00be
000003c0: c3f2 01be 3991 2ebd 5912 e2bc b0f4 263c
000003d0: b78c 11be af7c 9cbd 1319 883d e53f a73c
000003e0: 92ba 913d c83d 413d ac38 a73d a816 333d
000003f0: fbd5 1dbd 3ade 5f3d fbcf 1e3d 312d ecbd

tcn.network.0.conv2.bias f4 [32]
-0.013881138 0.042081427 0.033066656 -0.050353948 -0.008975026 0.01620166 0.009441738 -0.048981164
-0.023170846 0.026985083 -0.054725546 -0.013966694 0.0063995407 0.016174791 -0.03581359 0.017790794
-0.0001612195 0.088941894 0.041617714 0.032414004 0.049918268 0.0017309046 -0.0149285775 0.029445915
-0.012447187 0.0044249613 0.08078406 0.016195446 0.024755234 -0.04888322 0.0208036 0.04069707
00000000: b66d 63bc 935d 2c3d e770 073d f13f 4ebd
00000010: fd0b 13bc 58b9 843c 85b1 1a3c 79a0 48bd
00000020: c9d0 bdbc d20f dd3c e527 60bd 8fd4 64bc
00000030: 3db3 d13b ff80 843c 45b1 12bd 00be 913c
00000040: 080d 29b9 2b27 b63d 5677 2a3d 8cc4 043d
00000050: 1977 4c3d 85df e23a fe96 74bc 8f38 f13c
00000060: 49ef 4bbc 44ff 903b 1d72 a53d 50ac 843c
00000070: 7dcb ca3c c539 48bd 506c aa3c f9b1 263d

tcn.network.0.conv2.weight_g f4 [32, 1, 1]
0.68840754 0.78147936 0.63489085 0.7568866 1.1539661 0.5981991 0.48309225 0.49028847
0.71895504 0.9776586 0.7782103 0.7315642 1.0795935 1.1448419 0.97041583 0.4579942
1.0190682 0.7911977 1.240709 0.69856614 0.59643877 1.2706368 0.4810838 1.0081542
0.59739 0.8447225 0.72287834 1.4071734 0.94466275 0.4822213 0.7216839 1.156237
00000000: 7a3b 303f 080f 483f 3588 223f 52c3 413f
00000010: 29b5 933f 9423 193f de57 f73e 1707 fb3e
00000020: 700d 383f d647 7a3f ca38 473f cb47 3b3f
00000030: 1f30 8a3f 2e8a 923f 2c6d 783f 377e ea3e
00000040: d470 823f ef8b 4a3f 8dcf 9e3f 3bd5 323f
00000050: 36b0 183f 3aa4 a23f 9e50 f63e 320b 813f
00000060: 8dee 183f bc3f 583f 8e0e 393f 421e b43f
00000070: 6bd5 713f b6e5 f63e 47c0 383f 93ff 933f

tcn.network.0.conv2.weight_v f4 [32, 32, 8]
-0.00677341 0.02502252 -0.064289905 0.027242137 -0.040578105 -0.07464951 -0.007326039 -0.013805013
0.029042909 0.0029131866 0.1547231 0.014441401 -0.008718639 0.07770005 0.14548752 -0.025378985
-0.022520514 -0.027618207 0.022075968 -0.025372328 0.04428339 0.06771769 0.043283768 0.20098671
0.09869695 0.005493087 0.038687058 0.013324847 -0.042437173 0.07349715 0.044618696 0.06769446
-0.1114326 -0.030960636 -0.03727984 -0.081829034 -0.028569179 0.004245744 -0.042556673 0.0090327505
-0.016181465 0.016484935 -0.05570197 0.17845662 -0.044141326 0.058158435 -0.030053487 0.124770805
-0.049460493 -0.05220143 0.08311897 0.04421917 0.014242553 -0.08528302 0.011221007 0.020063665
0.05734924 -0.1273962 0.08779582 -0.058695734 -0.029921388 -0.031437084 -0.04826398 -0.08167094
-0.07064845 -0.041130412 -0.048555635 -0.0043154457 0.020483118 -0.06546036 -0.03319324 -0.18075235
0.07057206 0.0582588 -0.047841888 0.008654333 0.013680295 0.06397016 0.030328894 -0.017299287
-0.030458884 0.048971877 -0.037336983 0.0011154477 0.032965157 -0.02532513 0.06469212 -0.002341518
0.0274939 0.025006574 -0.01619032 -0.036173686 -0.05863929 -0.035667073 0.08399404 -0.051590335
-0.10342808 0.010943335 0.002426448 0.0011070931 0.0011538098 0.030144278 0.09713049 -0.024360925
0.05286846 -0.049200695 -0.111963965 0.010423892 -0.14202096 0.016049841 -0.148606 0.006908999
-0.06059006 0.05626672 0.049564254 0.046889953 0.042331617 0.050008412 -0.09725212 0.0369108
0.0626458 0.034781188 -0.0030761072 -0.03690668 0.09237309 -0.002475564 0.01734755 0.033971746
-0.042928316 0.19115706 -0.02980952 0.025892038 0.1445993 -0.093420506 -0.07106413 0.11935394
-0.0014907143 0.036017865 0.03225304 -0.015606123 0.009987833 0.046377257 0.11189168 -0.053854927
0.1135916 0.20169039 -0.059021693 -0.042263784 0.094374254 -0.0057793097 0.09990131 0.061210427
0.0052332175 -0.07377245 0.04158648 -0.05434125 0.040517505 -0.10565676 -0.038587164 -0.030276978
-0.03845131 -0.07901804 -0.021416314 -0.012034371 0.05706498 -0.113616765 -0.03115433 0.02191294
0.1393208 0.059335914 0.028158762 0.043717436 0.0111772 -8.322283e-05 0.061184928 -0.00087671354
0.038429826 -0.0077222683 -0.1123055 0.006531686 -0.12644447 -0.047817353 -0.014781127 -0.12917686
0.003951482 -0.113870196 -0.06561691 -0.11587342 0.04627321 -0.04985559 -0.019633647 -0.1822364
-0.015072437 0.017364662 -0.0037522137 0.0036664796 -0.076807745 -0.046523303 -0.041589588 -0.07846031
0.01889054 -0.067030266 0.019233176 0.061229065 0.16226374 -0.0411551 0.029252186 -0.029079923
-0.03672621 -0.028274631 0.045070864 0.012947599 0.011045819 -0.00698163 -0.02050439 0.0031348998
0.0054021827 0.100684375 -0.07897851 -0.0557151 -0.02748677 0.0008148685 -0.07131321 -0.01522385
-0.014056664 -0.05178862 0.07594648 0.055389725 -0.031490114 0.063160166 0.09294262 -0.016021557
-0.011838548 -0.012421895 -0.049331956 0.017624486 -0.004461782 -0.036331277 -0.052221417 -0.14395556
0.03992911 -0.032046936 0.05149178 0.069149636 0.049091514 0.06124144 0.028229512 -0.012263906
-0.020185692 0.06926839 0.054665845 -0.055166338 0.04890673 -6.5373555e-05 -0.034139037 -0.007301473
00000000: 7bf3 ddbb 07fc cc3c 6daa 83bd e72a df3c
00000010: 3a35 26bd d8e1 98bd 450f f0bb 6c2e 62bc
00000020: 65eb ed3c 29eb 3e3b bb6f 1e3e a09b 6c3c
00000030: 9fd8 0ebc 3421 9f3d aefa 143e 97e7 cfbc
00000040: f17c b8bc 943f e2bc a9d8 b43c a1d9 cfbc
00000050: 8062 353d 92af 8a3d 524a 313d 76cf 4d3e
00000060: a021 ca3d 5bff b33b 5276 1e3d 7650 5a3c
00000070: 9ad2 2dbd ac85 963d 18c2 363d 65a3 8a3d
00000080: c636 e4bd 29a1 fdbc bfb2 18bd fb95 a7bd
00000090: e909 eabc e21f 8b3b e84f 2ebd 1afe 133c
000000a0: fe8e 84bc 6a0b 873c c027 64bd 55bd 363e
000000b0: 89cd 34bd 8a37 6e3d bb32 f6bc d687 ff3d
000000c0: 1697 4abd 2bd1 55bd 473a aa3d 291f 353d
000000d0: 9959 693c dda8 aebd 51d8 373c 8e5c a43c
000000e0: 09e7 6a3d 2674 02be 4bce b33d f06a 70bd
000000f0: b31d f5bc 2cc4 00bd 73b0 45bd 1843 a7bd
00000100: 22b0 90bd 5d78 28bd 46e2 46bd 9568 8dbb
00000110: 36cc a73c 1510 86bd a3f5 07bd 2517 39be
00000120: 1688 903d c8a0 6e3d dbf5 43bd e7ca 0d3c
00000130: 5123 603c ca02 833d 4d74 f83c 3cb7 8dbc
00000140: e984 f9bc bc96 483d aaee 18bd 3734 923a
00000150: 7906 073d a676 cfbc 4d7d 843d 2774 19bb
00000160: e33a e13c 96da cc3c 90a1 84bc dc2a 14bd
00000170: c12f 70bd a317 12bd 1105 ac3d 6350 53bd
00000180: 1ad2 d3bd ac4b 333c 0b05 1f3b e11b 913a
00000190: 6f3b 973a 22f1 f63c 5aec c63d 9090 c7bc
000001a0: 998c 583d ab86 49bd 5d4d e5bd f9c8 2a3c
000001b0: f16d 11be f57a 833c 2c2c 18be e264 e23b
000001c0: 482d 78bd ef77 663d e303 4b3d ae0f 403d
000001d0: eb63 2d3d 9fd5 4c3d 1f2c c7bd c72f 173d
000001e0: 714c 803d b876 0e3d 8498 49bb 752b 17bd
000001f0: 1a2e bd3d 123d 22bb 731c 8e3c f525 0b3d
00000200: 9ad5 2fbd adbe 433e 1833 f4bc 8a1b d43c
00000210: d711 143e 4053 bfbd 128a 91bd d76f f43d
00000220: 1264 c3ba 7887 133d c31b 043d d3b0 7fbc
00000230: 02a4 233c 14f6 3d3d 7727 e53d fc96 5cbd
00000240: b6a2 e83d ed87 4e3e bbc0 71bd ca1c 2dbd
00000250: 4a47 c13d 5d60 bdbb 0f99 cc3d c9b7 7a3d
00000260: 697b ab3b 0316 97bd 9656 2a3d ee94 5ebd
00000270: aff5 253d 9262 d8bd 930d 1ebd 6d07 f8bc
00000280: 1f7f 1dbd 36d4 a1bd 4471 afbc cf2b 45bc
00000290: f8bc 693d e8af e8bd 5e37 ffbc c482 b33c
000002a0: 1daa 0e3e 370a 733d 34ad e63c 0e11 333d
000002b0: 9320 373c eb87 aeb8 0c9d 7a3d 40d3 65ba
000002c0: 9868 1d3d 150b fdbb 6d00 e6bd c107 d63b
000002d0: a97a 01be 21dc 43bd 8a2c 72bc f046 04be
000002e0: 6f7b 813b c734 e9bd 2962 86bd 0b4f edbd
000002f0: fa88 3d3d 6035 4cbd bed6 a0bc 2e9c 3abe
00000300: 62f2 76bc 5640 8e3c b3e7 75bb 5249 703b
00000310: 614d 9dbd 388f 3ebd d859 2abd cdaf a0bd
00000320: 55c0 9a3c 2a47 89bd e58e 9d3c 54cb 7a3d
00000330: 7728 263e 4092 28bd 48a2 ef3c 0539 eebc
00000340: 396e 16bd 33a0 e7bc 3a9c 383d 2b22 543c
00000350: 86f9 343c 28c6 e4bb d3f8 a7bc e472 4d3b
00000360: cb04 b13b 9c33 ce3d 7cbf a1bd 8435 64bd
00000370: ef2b e1bc e69c 553a a90c 92bd 746d 79bc
00000380: ec4d 66bc 4e20 54bd d489 9b3d 56e0 623d
00000390: c7fb 00bd 1e5a 813d b358 be3d a43f 83bc
000003a0: 78f6 41bc 3485 4bbc 4e10 4abd 3a61 903c
000003b0: 2434 92bb 1bd0 14bd 20e6 55bd 1669 13be
000003c0: b58c 233d a643 03bd 0be9 523d 539e 8d3d
000003d0: 2f14 493d 4ed8 7a3d 9441 e73c 8dee 48bc
000003e0: 775c a5bc 96dc 8d3d 4be9 5f3d 19f6 61bd
000003f0: 6c52 483d 2919 89b8 60d5 0bbd 3241 efbb

tcn.network.0.net.0.bias f4 [32]
-0.07701326 -0.022616163 -0.09500269 0.026616238 0.012976664 -0.046423215 0.10781419 0.0127450535
-0.05759034 0.019220447 -0.08178033 -0.04982158 -0.14286642 -0.13229588 0.023920443 -0.014989293
-0.105697304 -0.094926536 -0.22053835 -0.059109144 -0.10251945 0.081931315 -0.04702995 -0.12021021
0.047710218 -0.050801005 0.043712996 0.058839172 -0.11676509 -0.04779851 0.09223616 -0.007456416
00000000: 21b9 9dbd 8845 b9bc c590 c2bd 4c0a da3c
00000010: 139c 543c 4526 3ebd b0cd dc3d a1d0 503c
00000020: d9e3 6bbd 3374 9d3c 727c a7bd b711 4cbd
00000030: 934b 12be 9278 07be cef4 c33c a795 75bc
00000040: d477 d8bd d868 c2bd ced4 61be 6e1c 72bd
00000050: b8f5 d1bd 9bcb a73d 7aa2 40bd c530 f6bd
00000060: ca6b 433d b714 50bd 660c 333d 5801 713d
00000070: 8922 efbd 5fc8 43bd 50e6 bc3d f354 f4bb

tcn.network.0.net.0.weight_g f4 [32, 1, 1]
0.8620537 0.629705 0.63052106 0.60736746 0.6625355 0.68225825 0.63972783 0.698174
0.6693668 0.8799409 0.6072009 0.7376885 0.6863128 0.7494964 0.6386409 0.619712
0.91561055 0.63388246 0.8588504 0.5184278 0.7933275 0.8484124 0.7424082 0.7172834
0.6400504 0.61515737 0.8134963 0.91902447 0.6684634 0.7768662 1.187632 0.7452639
00000000: 8daf 5c3f 5934 213f d469 213f 6f7c 1b3f
00000010: ed9b 293f 7aa8 2e3f 34c5 233f 88bb 323f
00000020: 9f5b 2b3f cf43 613f 8571 1b3f 27d9 3c3f
00000030: 32b2 2f3f ffde 3f3f f87d 233f 72a5 1e3f
00000040: 7465 6a3f 1f46 223f 9fdd 5b3f afb7 043f
00000050: 8317 4b3f 8e31 593f 770e 3e3f e39f 373f
00000060: 58da 233f f47a 1d3f 4b41 503f 3045 6b3f
00000070: 6b20 2b3f b4e0 463f 5304 983f 9dc9 3e3f

tcn.network.0.net.0.weight_v f4 [32, 4, 8]
0.07285711 -0.014781587 -0.09496876 -0.07093965 0.035103425 0.0035471618 -0.12247359 -0.012508973
-0.16360103 0.015742019 0.12463999 0.0963792 0.19296698 0.015458005 0.113028355 0.0027042893
-0.02334045 0.04240472 -0.1866485 -0.2206768 -0.08856608 -0.009935312 -0.15437265 0.07738398
0.030839454 -0.123967096 0.07112235 0.16701408 -0.26906934 -0.004805087 -0.0005521999 -0.17067218
-0.07331897 -0.045291737 0.0014792869 0.021560378 -0.02139443 -0.10861763 -0.022136372 -0.024836157
-0.03574884 0.03763849 0.094348766 -0.04079689 -0.20174056 -0.021940392 0.03265542 0.012613683
0.02656847 -0.0009678096 -0.14081515 0.16226533 0.18172182 0.005160836 -0.054363806 -0.089292005
0.013462623 0.02711034 -0.16981398 -0.17523807 -0.06350093 -0.025580151 0.06944217 -0.07966251
0.03460368 0.00038320315 0.022629084 -0.039594043 0.066221066 0.08382661 0.06244629 -0.016056694
0.08106938 -0.19137594 0.13679789 0.015354276 -0.044637874 -0.14665598 0.0019607535 0.0040011792
-0.040417783 -0.09778808 -0.082807906 -0.13090901 0.053892247 -0.047807366 -0.16257516 -0.19447717
-0.074264064 0.19605266 -0.059794784 0.18893766 -0.15440601 0.09686582 -0.03922482 -0.0867317
-0.08711993 0.015779333 -0.015026861 0.034529045 0.044675946 -0.078850254 0.22089954 -0.18181688
0.027465258 -0.15009637 -0.08818047 -0.20062564 -0.07232034 -0.04056658 -0.06803004 7.556754e-05
0.116890445 -0.09119877 0.15924896 0.021113351 0.037875637 0.10332275 0.01827635 0.09916177
-0.12134606 -0.07391675 -0.02054945 0.019244196 -0.22524466 0.06568235 -0.22438753 0.08749503
-0.05870887 -0.011554329 -0.038954016 0.07868688 0.014324893 -0.028385658 0.028952703 0.11624766
-0.013424759 0.05269819 0.0020527707 -0.05108636 0.069264024 -0.23993169 0.020976095 -0.051058553
-0.051919173 0.035223935 0.09032014 -0.043895543 -0.13479733 0.021844106 0.12629588 -0.20690396
-0.04104023 0.022120807 -0.016096909 -0.13621554 -0.0017209327 0.14362091 -0.2325133 -0.11834823
-0.026300507 0.021250226 0.0050070025 -0.06358609 -0.014801471 -0.1032914 -0.044430725 0.08868309
-0.004747766 0.017071497 -0.047806814 0.0040624775 -0.017228853 -0.19964354 -0.14761642 -0.0931547
-0.022622067 -0.0365603 -0.03786047 0.029272098 -0.06697256 -0.11262764 0.2419249 -0.06772864
0.037873328 0.03328773 -0.051744968 0.011147047 -0.0041745347 0.20692879 -0.15206908 -0.06033667
0.032064784 -0.2100461 0.114170864 -0.11879798 -0.020033307 0.07362151 0.0013076675 -0.0016436183
0.19753966 0.028951 -0.11149241 0.077766694 0.052597966 0.031449 0.09284882 0.16610406
0.06013641 0.098267466 -0.13365367 -0.18914191 -0.16319093 -0.058465485 -0.1212133 0.02500332
-0.16665296 -0.1693828 -0.09116318 0.004595914 -0.1547288 -0.02344271 -0.041923855 -0.19099928
-0.008776356 -0.19330804 -0.10237156 -0.0075355405 -0.028012564 -0.11958213 -0.023162287 0.17802088
-0.005689487 0.12645239 0.03784333 -0.012658775 0.064184815 -0.0034991147 -0.17199007 -0.12572065
-0.12690262 -0.042618964 -0.02759664 0.010190174 -0.14213835 -0.07640969 0.066454075 0.02041621
0.071156636 0.04717806 0.08165106 0.04372278 -0.038534146 0.05465529 0.038772564 -0.11532057
00000000: 1c36 953d 782e 72bc fb7e c2bd cf48 91bd
00000010: 9cc8 0f3d 8077 683b 6fd3 fabd 6ff2 4cbc
00000020: 0787 27be 68f5 803c 4043 ff3d 7562 c53d
00000030: 2399 453e 9243 7d3c 697b e73d 723a 313b
00000040: 7934 bfbc 92b0 2d3d c920 3fbe 19f9 61be
00000050: 2262 b5bd b8c7 22bc dd13 1ebe 7e7b 9e3d
00000060: 06a3 fc3c 76e2 fdbd 98a8 913d bd05 2b3e
00000070: 75c3 89be fe73 9dbb 82c1 10ba b0c4 2ebe
00000080: 4228 96bd d483 39bd a2e4 c13a 649f b03c
00000090: 5f43 afbc ec72 debd 5657 b5bc 3275 cbbc
000000a0: 606d 12bd d12a 1a3d ed39 c13d a41a 27bd
000000b0: 1495 4ebe 56bc b3bc b1c1 053d 9fa9 4e3c
000000c0: 1fa6 d93c 9ab4 7dba d931 10be e228 263e
000000d0: 4915 3a3e 3b1c a93b 95ac 5ebd bade b6bd
000000e0: 5592 5c3c 8116 de3c b7e3 2dbe 9c71 33be
000000f0: c70c 82bd 778d d1bc b237 8e3d 1926 a3bd
00000100: 97bc 0d3d a8e8 c839 a160 b93c 5d2d 22bd
00000110: e99e 873d 49ad ab3d aec7 7f3d 5489 83bc
00000120: b407 a63d 0ef8 43be bf14 0c3e 8090 7b3c
00000130: 34d6 36bd fc2c 16be fc7f 003b 531c 833b
00000140: 1e8d 25bd 1e45 c8bd 3197 a9bd 030d 06be
00000150: 1ebe 5c3d a8d1 43bd 1a7a 26be 0625 47be
00000160: c217 98bd 07c2 483e 60eb 74bd e078 413e
00000170: 9c1c 1ebe 9661 c63d 34aa 20bd 64a0 b1bd
00000180: ef6b b2bd a943 813c 3933 76bc 546e 0d3d
00000190: 20fe 363d 3e7c a1bd 7d33 623e 342e 3abe
000001a0: d2fe e03c ddb2 19be f697 b4bd cf70 4dbe
000001b0: b01c 94bd 2429 26bd 5553 8bbd 047a 9e38
000001c0: 4264 ef3d 6cc6 babd 2912 233e e8f5 ac3c
000001d0: 7c23 1b3d e19a d33d 49b8 953c 5315 cb3d
000001e0: 4884 f8bd aa61 97bd 5257 a8bc 01a6 9d3c
000001f0: 89a6 66be 7884 863d d8c5 65be 9830 b33d
00000200: b678 70bd 5e4e 3dbc 3f8e 1fbd 9626 a13d
00000210: f5b2 6a3c 0a89 e8bc 382e ed3c 4113 ee3d
00000220: 85f3 5bbc 0fda 573d c787 063b ee3f 51bd
00000230: 4cda 8d3d a7b0 75be 0fd6 ab3c c622 51bd
00000240: 33a9 54bd f946 103d c4f9 b83d d0cb 33bd
00000250: 5008 0abe 69f2 b23c b553 013e a2de 53be
00000260: cd19 28bd b236 b53c aadd 83bc 167c 0bbe
00000270: eb90 e1ba 5c11 133e f717 6ebe 8f60 f2bd
00000280: 2974 d7bc f414 ae3c c811 a43b 6d39 82bd
00000290: de81 72bc 718a d3bd fefc 35bd 7b9f b53d
000002a0: 2693 9bbb 86d9 8b3c 14d1 43bd 881e 853b
000002b0: 8623 8dbc 5b6f 4cbe c228 17be e4c7 bebd
000002c0: ea51 b9bc 41c0 15bd 9513 1bbd 0acc ef3c
000002d0: e928 89bd 52a9 e6bd 29bb 773e 50b5 8abd
000002e0: 1021 1b3d b758 083d 88f2 53bd 1ba2 363c
000002f0: 89ca 88bb 24e5 533e ffb7 1bbe 9623 77bd
00000300: 5d56 033d 5316 57be 6ad2 e93d 5b4c f3bd
00000310: e41c a4bc e0c6 963d 0a66 ab3a ae6e d7ba
00000320: d647 4a3e a62a ed3c 2256 e4bd 2544 9f3d
00000330: f770 573d abd0 003d 8627 be3d 2f17 2a3e
00000340: 9951 763d 7440 c93d 82dc 08be 6bae 41be
00000350: 861b 27be 8179 6fbd ae3e f8bd c3d3 cc3c
00000360: 13a7 2abe af72 2dbe c3b3 babd 5299 963b
00000370: 3a71 1ebe ed0a c0bc 59b8 2bbd 5195 43be
00000380: b4ca 0fbc 8bf2 45be 2ea8 d1bd b2ec f6bb
00000390: 9b7a e5bc 7ae7 f4bd d6be bdbc 1b4b 363e
000003a0: e06e babb bc7c 013e 9c01 1b3d c066 4fbc
000003b0: 5473 833d 6751 65bb 2a1e 30be eabc 00be
000003c0: c3f2 01be 3991 2ebd 5912 e2bc b0f4 263c
000003d0: b78c 11be af7c 9cbd 1319 883d e53f a73c
000003e0: 92ba 913d c83d 413d ac38 a73d a816 333d
000003f0: fbd5 1dbd 3ade 5f3d fbcf 1e3d 312d ecbd

tcn.network.0.net.4.bias f4 [32]
-0.013881138 0.042081427 0.033066656 -0.050353948 -0.008975026 0.01620166 0.009441738 -0.048981164
-0.023170846 0.026985083 -0.054725546 -0.013966694 0.0063995407 0.016174791 -0.03581359 0.017790794
-0.0001612195 0.088941894 0.041617714 0.032414004 0.049918268 0.0017309046 -0.0149285775 0.029445915
-0.012447187 0.0044249613 0.08078406 0.016195446 0.024755234 -0.04888322 0.0208036 0.04069707
00000000: b66d 63bc 935d 2c3d e770 073d f13f 4ebd
00000010: fd0b 13bc 58b9 843c 85b1 1a3c 79a0 48bd
00000020: c9d0 bdbc d20f dd3c e527 60bd 8fd4 64bc
00000030: 3db3 d13b ff80 843c 45b1 12bd 00be 913c
00000040: 080d 29b9 2b27 b63d 5677 2a3d 8cc4 043d
00000050: 1977 4c3d 85df e23a fe96 74bc 8f38 f13c
00000060: 49ef 4bbc 44ff 903b 1d72 a53d 50ac 843c
00000070: 7dcb ca3c c539 48bd 506c aa3c f9b1 263d

tcn.network.0.net.4.weight_g f4 [32, 1, 1]
0.68840754 0.78147936 0.63489085 0.7568866 1.1539661 0.5981991 0.48309225 0.49028847
0.71895504 0.9776586 0.7782103 0.7315642 1.0795935 1.1448419 0.97041583 0.4579942
1.0190682 0.7911977 1.240709 0.69856614 0.59643877 1.2706368 0.4810838 1.0081542
0.59739 0.8447225 0.72287834 1.4071734 0.94466275 0.4822213 0.7216839 1.156237
00000000: 7a3b 303f 080f 483f 3588 223f 52c3 413f
00000010: 29b5 933f 9423 193f de57 f73e 1707 fb3e
00000020: 700d 383f d647 7a3f ca38 473f cb47 3b3f
00000030: 1f30 8a3f 2e8a 923f 2c6d 783f 377e ea3e
00000040: d470 823f ef8b 4a3f 8dcf 9e3f 3bd5 323f
00000050: 36b0 183f 3aa4 a23f 9e50 f63e 320b 813f
00000060: 8dee 183f bc3f 583f 8e0e 393f 421e b43f
00000070: 6bd5 713f b6e5 f63e 47c0 383f 93ff 933f

tcn.network.0.net.4.weight_v f4 [32, 32, 8]
-0.00677341 0.02502252 -0.064289905 0.027242137 -0.040578105 -0.07464951 -0.007326039 -0.013805013
0.029042909 0.0029131866 0.1547231 0.014441401 -0.008718639 0.07770005 0.14548752 -0.025378985
-0.022520514 -0.027618207 0.022075968 -0.025372328 0.04428339 0.06771769 0.043283768 0.20098671
0.09869695 0.005493087 0.038687058 0.013324847 -0.042437173 0.07349715 0.044618696 0.06769446
-0.1114326 -0.030960636 -0.03727984 -0.081829034 -0.028569179 0.004245744 -0.042556673 0.0090327505
-0.016181465 0.016484935 -0.05570197 0.17845662 -0.044141326 0.058158435 -0.030053487 0.124770805
-0.049460493 -0.05220143 0.08311897 0.04421917 0.014242553 -0.08528302 0.011221007 0.020063665
0.05734924 -0.1273962 0.08779582 -0.058695734 -0.029921388 -0.031437084 -0.04826398 -0.08167094
-0.07064845 -0.041130412 -0.048555635 -0.0043154457 0.020483118 -0.06546036 -0.03319324 -0.18075235
0.07057206 0.0582588 -0.047841888 0.008654333 0.013680295 0.06397016 0.030328894 -0.017299287
-0.030458884 0.048971877 -0.037336983 0.0011154477 0.032965157 -0.02532513 0.06469212 -0.002341518
0.0274939 0.025006574 -0.01619032 -0.036173686 -0.05863929 -0.035667073 0.08399404 -0.051590335
-0.10342808 0.010943335 0.002426448 0.0011070931 0.0011538098 0.030144278 0.09713049 -0.024360925
0.05286846 -0.049200695 -0.111963965 0.010423892 -0.14202096 0.016049841 -0.148606 0.006908999
-0.06059006 0.05626672 0.049564254 0.046889953 0.042331617 0.050008412 -0.09725212 0.0369108
0.0626458 0.034781188 -0.0030761072 -0.03690668 0.09237309 -0.002475564 0.01734755 0.033971746
-0.042928316 0.19115706 -0.02980952 0.025892038 0.1445993 -0.093420506 -0.07106413 0.11935394
-0.0014907143 0.036017865 0.03225304 -0.015606123 0.009987833 0.046377257 0.11189168 -0.053854927
0.1135916 0.20169039 -0.059021693 -0.042263784 0.094374254 -0.0057793097 0.09990131 0.061210427
0.0052332175 -0.07377245 0.04158648 -0.05434125 0.040517505 -0.10565676 -0.038587164 -0.030276978
-0.03845131 -0.07901804 -0.021416314 -0.012034371 0.05706498 -0.113616765 -0.03115433 0.02191294
0.1393208 0.059335914 0.028158762 0.043717436 0.0111772 -8.322283e-05 0.061184928 -0.00087671354
0.038429826 -0.0077222683 -0.1123055 0.006531686 -0.12644447 -0.047817353 -0.014781127 -0.12917686
0.003951482 -0.113870196 -0.06561691 -0.11587342 0.04627321 -0.04985559 -0.019633647 -0.1822364
-0.015072437 0.017364662 -0.0037522137 0.0036664796 -0.076807745 -0.046523303 -0.041589588 -0.07846031
0.01889054 -0.067030266 0.019233176 0.061229065 0.16226374 -0.0411551 0.029252186 -0.029079923
-0.03672621 -0.028274631 0.045070864 0.012947599 0.011045819 -0.00698163 -0.02050439 0.0031348998
0.0054021827 0.100684375 -0.07897851 -0.0557151 -0.02748677 0.0008148685 -0.07131321 -0.01522385
-0.014056664 -0.05178862 0.07594648 0.055389725 -0.031490114 0.063160166 0.09294262 -0.016021557
-0.011838548 -0.012421895 -0.049331956 0.017624486 -0.004461782 -0.036331277 -0.052221417 -0.14395556
0.03992911 -0.032046936 0.05149178 0.069149636 0.049091514 0.06124144 0.028229512 -0.012263906
-0.020185692 0.06926839 0.054665845 -0.055166338 0.04890673 -6.5373555e-05 -0.034139037 -0.007301473
00000000: 7bf3 ddbb 07fc cc3c 6daa 83bd e72a df3c
00000010: 3a35 26bd d8e1 98bd 450f f0bb 6c2e 62bc
00000020: 65eb ed3c 29eb 3e3b bb6f 1e3e a09b 6c3c
00000030: 9fd8 0ebc 3421 9f3d aefa 143e 97e7 cfbc
00000040: f17c b8bc 943f e2bc a9d8 b43c a1d9 cfbc
00000050: 8062 353d 92af 8a3d 524a 313d 76cf 4d3e
00000060: a021 ca3d 5bff b33b 5276 1e3d 7650 5a3c
00000070: 9ad2 2dbd ac85 963d 18c2 363d 65a3 8a3d
00000080: c636 e4bd 29a1 fdbc bfb2 18bd fb95 a7bd
00000090: e909 eabc e21f 8b3b e84f 2ebd 1afe 133c
000000a0: fe8e 84bc 6a0b 873c c027 64bd 55bd 363e
000000b0: 89cd 34bd 8a37 6e3d bb32 f6bc d687 ff3d
000000c0: 1697 4abd 2bd1 55bd 473a aa3d 291f 353d
000000d0: 9959 693c dda8 aebd 51d8 373c 8e5c a43c
000000e0: 09e7 6a3d 2674 02be 4bce b33d f06a 70bd
000000f0: b31d f5bc 2cc4 00bd 73b0 45bd 1843 a7bd
00000100: 22b0 90bd 5d78 28bd 46e2 46bd 9568 8dbb
00000110: 36cc a73c 1510 86bd a3f5 07bd 2517 39be
00000120: 1688 903d c8a0 6e3d dbf5 43bd e7ca 0d3c
00000130: 5123 603c ca02 833d 4d74 f83c 3cb7 8dbc
00000140: e984 f9bc bc96 483d aaee 18bd 3734 923a
00000150: 7906 073d a676 cfbc 4d7d 843d 2774 19bb
00000160: e33a e13c 96da cc3c 90a1 84bc dc2a 14bd
00000170: c12f 70bd a317 12bd 1105 ac3d 6350 53bd
00000180: 1ad2 d3bd ac4b 333c 0b05 1f3b e11b 913a
00000190: 6f3b 973a 22f1 f63c 5aec c63d 9090 c7bc
000001a0: 998c 583d ab86 49bd 5d4d e5bd f9c8 2a3c
000001b0: f16d 11be f57a 833c 2c2c 18be e264 e23b
000001c0: 482d 78bd ef77 663d e303 4b3d ae0f 403d
000001d0: eb63 2d3d 9fd5 4c3d 1f2c c7bd c72f 173d
000001e0: 714c 803d b876 0e3d 8498 49bb 752b 17bd
000001f0: 1a2e bd3d 123d 22bb 731c 8e3c f525 0b3d
00000200: 9ad5 2fbd adbe 433e 1833 f4bc 8a1b d43c
00000210: d711 143e 4053 bfbd 128a 91bd d76f f43d
00000220: 1264 c3ba 7887 133d c31b 043d d3b0 7fbc
00000230: 02a4 233c 14f6 3d3d 7727 e53d fc96 5cbd
00000240: b6a2 e83d ed87 4e3e bbc0 71bd ca1c 2dbd
00000250: 4a47 c13d 5d60 bdbb 0f99 cc3d c9b7 7a3d
00000260: 697b ab3b 0316 97bd 9656 2a3d ee94 5ebd
00000270: aff5 253d 9262 d8bd 930d 1ebd 6d07 f8bc
00000280: 1f7f 1dbd 36d4 a1bd 4471 afbc cf2b 45bc
00000290: f8bc 693d e8af e8bd 5e37 ffbc c482 b33c
000002a0: 1daa 0e3e 370a 733d 34ad e63c 0e11 333d
000002b0: 9320 373c eb87 aeb8 0c9d 7a3d 40d3 65ba
000002c0: 9868 1d3d 150b fdbb 6d00 e6bd c107 d63b
000002d0: a97a 01be 21dc 43bd 8a2c 72bc f046 04be
000002e0: 6f7b 813b c734 e9bd 2962 86bd 0b4f edbd
000002f0: fa88 3d3d 6035 4cbd bed6 a0bc 2e9c 3abe
00000300: 62f2 76bc 5640 8e3c b3e7 75bb 5249 703b
00000310: 614d 9dbd 388f 3ebd d859 2abd cdaf a0bd
00000320: 55c0 9a3c 2a47 89bd e58e 9d3c 54cb 7a3d
00000330: 7728 263e 4092 28bd 48a2 ef3c 0539 eebc
00000340: 396e 16bd 33a0 e7bc 3a9c 383d 2b22 543c
00000350: 86f9 343c 28c6 e4bb d3f8 a7bc e472 4d3b
00000360: cb04 b13b 9c33 ce3d 7cbf a1bd 8435 64bd
00000370: ef2b e1bc e69c 553a a90c 92bd 746d 79bc
00000380: ec4d 66bc 4e20 54bd d489 9b3d 56e0 623d
00000390: c7fb 00bd 1e5a 813d b358 be3d a43f 83bc
000003a0: 78f6 41bc 3485 4bbc 4e10 4abd 3a61 903c
000003b0: 2434 92bb 1bd0 14bd 20e6 55bd 1669 13be
000003c0: b58c 233d a643 03bd 0be9 523d 539e 8d3d
000003d0: 2f14 493d 4ed8 7a3d 9441 e73c 8dee 48bc
000003e0: 775c a5bc 96dc 8d3d 4be9 5f3d 19f6 61bd
000003f0: 6c52 483d 2919 89b8 60d5 0bbd 3241 efbb

tcn.network.0.downsample.weight f4 [32, 4, 1]
-0.053813376 -0.035422847 -0.0673975 -0.071362354 -0.109677926 0.027704367 -0.07838737 -0.058253616
0.04564251 0.04173138 -0.014971752 0.0613176 -0.011380425 0.014851264 -0.007398144 -0.004836589
-0.08076046 -0.014258419 -0.09786086 -0.13338454 0.0020298003 0.039075438 0.06511551 0.045374285
-0.012549406 -0.011358365 1.6194239e-05 0.013542917 0.009191817 0.0093271285 0.007498349 -0.008616493
-0.049349666 -0.0068177828 -0.025248196 -0.031789962 -0.045047283 -0.20977534 -0.028441764 -0.035933156
-0.053093072 -0.018389646 -0.12580667 -0.08171648 0.030457057 0.02338025 0.0205116 -0.003951512
-0.063646816 -0.047186386 -0.14413632 -0.1860622 -0.056170497 -0.0065222676 -0.09616212 -0.09646051
-0.099030435 -0.17156537 -0.10294481 -0.10002912 -0.004990214 0.0001116857 -0.011892121 -0.00532669
-0.03243253 -0.051662646 -0.10949149 -0.0456501 0.015668573 0.025099093 -0.040104683 0.05094155
-0.08781479 -0.08925581 0.03926907 -0.06943162 0.049590725 0.017714206 0.029366469 -0.008869537
0.053592626 0.002823106 0.062057566 -0.07283134 -0.15673245 -0.19664907 -0.1475007 -0.16202603
-0.0014286883 0.0054847687 0.0042087473 0.004437148 -0.21198536 -0.17271915 -0.15027712 -0.15034994
-0.038463604 -0.049438283 -0.03511729 -0.033935145 9.36374e-05 -0.03616709 -0.0004243038 -0.044974346
0.0835754 0.05465591 0.051528502 0.029649688 -0.08657866 -0.10726286 -0.14795852 -0.14203021
-0.035241894 0.01327098 -0.033383403 -0.057801135 -0.013317176 0.0020469397 -0.023109287 -0.0038083738
0.0041345777 0.010242277 -0.0485998 -0.029644426 -0.08270289 -0.057179343 -0.06961416 -0.030828936
00000000: 6a6b 5cbd 8c17 11bd b307 8abd 6d26 92bd
00000010: d29e e0bd 45f4 e23c 8f89 a0bd 589b 6ebd
00000020: a4f3 3a3d 86ee 2a3d 144c 75bc 2a28 7b3d
00000030: f674 3abc b752 733c 216c f2bb 407c 9ebb
00000040: bd65 a5bd 259c 69bc 466b c8bd f595 08be
00000050: 6606 053b 910d 203d 485b 853d 63da 393d
00000060: 069c 4dbc 7018 3abc ddd8 8737 1ce3 5d3c
00000070: 4699 163c d0d0 183c b6b4 f53b 312c 0dbc
00000080: e022 4abd b567 dfbb 4ed5 cebc 3136 02bd
00000090: 8083 38bd 59cf 56be b4fe e8bc a52e 13bd
000000a0: 1f78 59bd e2a5 96bc 77d3 00be f85a a7bd
000000b0: 1481 f93c f087 bf3c f107 a83c af7b 81bb
000000c0: 4359 82bd 8346 41bd 7998 13be 1787 3ebe
000000d0: 0913 66bd bfb8 d5bb a5f0 c4bd 168d c5bd
000000e0: 78d0 cabd d5ae 2fbe bbd4 d2bd 11dc ccbd
000000f0: f384 a3bb ce38 ea38 2cd7 42bc 848b aebb
00000100: f9d7 04bd 369c 53bd 133d e0bd 99fb 3abd
00000110: 615b 803c 9d9c cd3c cf44 24bd 16a8 503d
00000120: 3ed8 b3bd c0cb b6bd 9bd8 203d 2a32 8ebd
00000130: a51f 4b3d 621d 913c f391 f03c 8951 11bc
00000140: f183 5b3d dc03 393b 1330 7e3d 9928 95bd
00000150: 797e 20be 605e 49be 6c0a 17be 27ea 25be
00000160: d342 bbba 93b9 b33b 88e9 893b 7f65 913b
00000170: b112 59be 4add 30be 3fe2 19be 56f5 19be
00000180: 038c 1dbd cc7f 4abd 26d7 0fbd 94ff 0abd
00000190: 325f c438 f123 14bd 1875 deb9 0537 38bd
000001a0: 9429 ab3d e0de 5f3d 8d0f 533d e7e3 f23c
000001b0: 2750 b1bd a1ac dbbd 7082 17be 5e70 11be
000001c0: ce59 10bd 866e 593c 09bd 08bd e2c0 6cbd
000001d0: 4930 5abc f325 063b b04f bdbc e995 79bb
000001e0: 5a7b 873b 39cf 273c 9510 47bd ded8 f2bc
000001f0: 2260 a9bd e334 6abd de91 8ebd f78c fcbc

tcn.network.0.downsample.bias f4 [32]
0.19220518 0.086552806 -0.16804466 -0.070060596 0.28797507 -0.23669858 -0.27779248 -0.28123257
0.041135326 0.024000358 0.23554768 -0.0660906 0.16174276 0.092155196 0.23928896 -0.32889202
0.018714886 -0.109802 0.0790388 -0.11724291 -0.11984457 0.1437533 -0.39920393 0.18664993
0.032018654 0.033572197 -0.29078856 0.12582983 0.015604999 -0.17348845 -0.012618514 0.081808336
00000000: 6fd1 443e 9942 b13d e613 2cbe ee7b 8fbd
00000010: 7871 933e 1d61 72be d13a 8ebe b7fd 8fbe
00000020: 847d 283d 669c c43c 6933 713e 825a 87bd
00000030: e59f 253e ddbb bc3d 2a08 753e 8964 a8be
00000040: f64f 993c dfdf e0bd 18df a13d 0d1d f0bd
00000050: 1271 f5bd 1134 133e 7564 ccbe 2921 3f3e
00000060: fe25 033d 0083 093d 3de2 94be 89d9 003e
00000070: 1cac 7f3c f5a6 31be e2bd 4ebc 218b a73d

tcn.network.1.conv1.bias f4 [32]
0.0049790437 -0.056805834 -0.006602526 -0.038259547 -0.016676793 -0.020263737 0.01904932 0.030348096
-0.009091766 -0.054108195 0.0017227685 0.05652764 -0.011010659 -0.033164375 -0.027700739 0.051870972
-0.015523327 -0.04606451 -0.036577597 -0.022024391 -0.04597932 -0.02864563 -0.004688456 -0.026552647
-0.008577581 0.00067737355 -0.043167826 -0.057054278 0.013623327 -0.007783159 -0.0437432 -0.008234292
00000000: 3f27 a33b 3cad 68bd 015a d8bb 0bb6 1cbd
00000010: c59d 88bc 2300 a6bc 520d 9c3c 929c f83c
00000020: a1f5 14bc 8ea0 5dbd 85ce e13a 8789 673d
00000030: 0d66 34bc 5ed7 07bd a9ec e2bc a876 543d
00000040: 8d55 7ebc 24ae 3cbd 64d2 15bd 7f6c b4bc
00000050: d054 3cbd 3eaa eabc 9fa1 99bb f084 d9bc
00000060: fb88 0cbc c591 313a bfd0 30bd bfb1 69bd
00000070: 6034 5f3c df09 ffbb 122c 33bd 20e9 06bc

tcn.network.1.conv1.weight_g f4 [32, 1, 1]
0.95654213 0.47933698 0.9102066 0.6073256 0.47769037 1.4085279 1.4139673 0.8675492
0.45679715 1.2528169 0.5134396 2.4175029 0.45912996 0.45604157 0.6286781 1.151563
0.9848259 0.7152102 0.4791316 0.58430594 0.43780455 0.9976584 0.6903638 0.85011786
0.50782174 1.8676537 0.51315784 0.47172323 2.2652054 1.9970063 0.46155575 0.66057146
00000000: f2df 743f a86b f53e 4d03 693f b179 1b3f
00000010: d593 f43e a44a b43f e1fc b43f b417 5e3f
00000020: 51e1 e93e 4e5c a03f c770 033f 5eb8 1a40
00000030: 1513 eb3e 487e e93e 0cf1 203f 6b66 933f
00000040: 8d1d 7c3f 0418 373f bd50 f53e 1395 153f
00000050: eb27 e03e 8a66 7f3f afbb 303f 53a1 593f
00000060: 9b00 023f 470f ef3f 505e 033f b585 f13e
00000070: 20f9 1040 e79d ff3f 0951 ec3e 361b 293f

tcn.network.1.conv1.weight_v f4 [32, 32, 8]
0.074643776 -0.01931403 -0.0066334363 -0.03823462 -0.01788292 -0.091070846 0.028022513 -0.012457067
0.03416467 0.050302602 0.041806925 0.012665306 0.05765804 -0.016772646 0.04965492 0.0755498
-0.007748682 -0.19758798 0.011918572 0.014359644 0.21836972 -0.1758241 0.035661638 -0.13238919
-0.042933427 -0.008641296 -0.036348168 -0.20467451 0.07414092 0.122851685 0.16748165 -0.06532483
-0.019043805 0.033641502 -0.032928627 0.054871242 -0.0098421415 0.0030839206 -0.060995005 0.060889028
-0.09459247 -0.061186746 -0.019716242 0.0069730333 -0.13639887 0.019373909 -0.21185978 0.03916594
-0.0011600944 -1.858818e-05 -1.1724426e-28 -5.333797e-38 4.870389e-18 4.1000267e-06 -4.7013823e-22 -0.00076622184
-2.0569054e-08 -2.2652692e-14 -3.582059e-19 8.858044e-06 -5.7834237e-12 -2.7156766e-38 -5.100846e-31 0.0031217237
0.024383374 0.06092248 0.106808834 -0.055878457 0.06360028 -0.17698297 0.07991273 0.056107912
-0.04567717 -0.08503576 -0.059108917 -0.093109414 -0.04888608 -0.032563966 -0.03607508 -0.096410386
0.019613273 0.044966757 0.0018091343 0.1265823 -0.036781933 0.030901782 -0.036969144 0.08500211
0.16883703 -0.07399526 0.053802613 -0.16727044 -0.13030058 -0.18102671 -0.11078111 -0.071815334
-0.0125062205 -0.14921933 0.020318102 0.020196186 -0.028429516 0.025609266 -0.018147925 -0.22011937
0.005120921 -0.0019323116 -0.024746295 -0.22757712 0.03950786 0.056284066 -0.05937976 -0.06632243
-0.004929346 -0.027013717 -0.009163103 -0.07627044 0.031277705 -0.037998132 -0.03598925 -0.021912156
-4.552072e-13 1.7096655e-12 -3.0104537e-11 5.05495e-18 -1.8262037e-05 -8.494588e-33 -4.223484e-09 -5.947518e-06
-0.011912545 0.0398322 -0.014602889 -0.033830322 0.004945203 0.054684084 0.044058237 0.040037937
-0.08867637 0.1533849 0.024835452 0.14371592 -0.06082585 0.12068363 0.041430127 0.30019644
-0.023083266 0.034894526 0.009947645 0.030860996 0.0072524115 -0.018188568 -0.04050372 0.00515517
-0.012486985 0.016565759 0.08767759 -0.011006486 0.08051176 -0.002416629 -0.0040974217 0.0047446294
0.055462703 0.081040666 0.082961604 -0.009250509 0.06999896 -0.018298574 0.08265457 -0.09295572
0.010823476 -0.031441227 -0.00027159438 0.05403603 0.011927722 0.0026755456 0.007816151 -0.04682103
3.427728e-13 -5.7746624e-10 3.95547e-38 1.0857338e-34 -1.8672987e-15 3.5281576e-11 1.9970653e-34 -0.00046130895
-0.07968367 -0.05356869 0.04043171 0.0048081344 0.055763904 0.038328215 -0.07725467 -0.088151
0.10633359 0.057647303 -0.050153807 0.029118484 0.159793 -0.038839065 0.10804514 0.007483137
-0.06269845 0.12493645 0.017951127 0.13560481 -0.024918174 0.10456557 0.0064886184 0.16750811
-0.014934928 -0.06682699 0.119095996 0.011324293 0.108254105 0.094945595 -0.071869984 -0.00027067747
0.042993087 0.026383772 0.050125014 -0.05422549 -0.09664839 -0.1973865 0.07898823 0.017357832
0.014019897 0.013500609 0.065188915 0.06064353 0.030591967 -0.08761311 0.020756805 -0.025541857
6.75667e-10 9.757116e-19 -3.4134455e-12 -1.7743368e-09 1.1567523e-28 -1.7942214e-14 -0.0009150615 -2.760209e-09
-0.00531519 -0.12258155 0.006195338 -0.081054464 -0.23074391 0.12713632 -0.1405626 -0.13357444
0.00017041642 -0.0837813 0.023488762 -0.05531138 0.059763137 -0.014122043 0.012532666 -0.087882355
00000000: d6de 983d 7538 9ebc 4c5d d9bb e89b 1cbd
00000010: 347f 92bc 5a83 babd 788f e53c ba18 4cbc
00000020: 41f0 0b3d 1a0a 4e3d bd3d 2b3d 2582 4f3c
00000030: d62a 6c3d ca66 89bc f562 4b3d dbb9 9a3d
00000040: a8e8 fdbb 8154 4abe 1d46 433c b644 6b3c
00000050: 509c 5f3e 3c0b 34be f011 123d 0891 07be
00000060: f6da 2fbd 3994 0dbc d1e1 14bd 3296 51be
00000070: 32d7 973d aa99 fb3d 4f80 2b3e 06c9 85bd
00000080: c101 9cbc accb 093d 2be0 06bd abc0 603d
00000090: ef40 21bc 9a1b 4a3b e6d5 79bd c666 793d
000000a0: b2b9 c1bd f49e 7abd f583 a1bc 0b7e e43b
000000b0: 25ac 0bbe 08b6 9e3c c5f1 58be 776c 203d
000000c0: 4f0e 98ba d0ed 9bb7 f09f 1491 2433 9181
000000d0: 86af b322 f692 8936 2f17 0e9c 47dc 48ba
000000e0: d4af b0b2 8d09 cca8 8c72 d3a0 029d 1437
000000f0: 737c cbac 02db 1381 2c88 258d d595 4c3b
00000100: a4bf c73c da89 793d 97be da3d cfe0 64bd
00000110: dd40 823d 063b 35be 49a9 a33d 69d1 653d
00000120: fc17 3bbd 3b27 aebd 311c 72bd 26b0 bebd
00000130: c53c 48bd cb61 05bd 77c3 13bd cf72 c5bd
00000140: 04ac a03c 102f 383d 7920 ed3a ca9e 013e
00000150: a7a8 16bd bc25 fd3c f56c 17bd 9615 ae3d
00000160: 9de3 2c3e d48a 97bd 2160 5c3d f148 2bbe
00000170: 846d 05be 115f 39be 35e1 e2bd eb13 93bd
00000180: e4e6 4cbc f4cc 18be 2672 a63c 7972 a53c
00000190: 04e5 e8bc 86ca d13c f5aa 94bc f966 61be
000001a0: 66cd a73b 9e45 fdba beb8 cabc fa09 69be
000001b0: fed2 213d 1f8a 663d 3138 73bd 0ed4 87bd
000001c0: 5a86 a1bb df4b ddbc d720 16bc ad33 9cbd
000001d0: 0d1d 003d eea3 1bbd 7769 13bd 1f81 b3bc
000001e0: 2321 00ab 319d f02b b266 04ae a77e ba22
000001f0: 6d31 99b7 fa6c 308a 281e 91b1 ca90 c7b6
00000200: d62c 43bc 1727 233d f540 6fbc aa91 0abd
00000210: 5f0b a23b 6bfc 5f3d 6976 343d d2fe 233d
00000220: f59b b5bd ee10 1d3e b873 cb3c 442a 133e
00000230: 8724 79bd fb28 f73d a3b2 293d 59b3 993e
00000240: 1e19 bdbc 90ed 0e3d 72fb 223c 33d0 fc3c
00000250: a3a5 ed3b 3100 95bc 3be7 25bd b3ec a83b
00000260: 3696 4cbc eab4 873c 4f90 b33d 8c54 34bc
00000270: 5ae3 a43d 4f60 1ebb aa43 86bb d678 9b3b
00000280: dc2c 633d a6f8 a53d c6e7 a93d 728f 17bc
00000290: 9d5b 8f3d e4e6 95bc cd46 a93d 925f bebd
000002a0: f354 313c 84c8 00bd c864 8eb9 e254 5d3d
000002b0: 7e6c 433c 3558 2f3b 500f 003c 69c7 3fbd
000002c0: c4f6 c02a 93bb 1eb0 355b 5701 9b51 1007
000002d0: 958d 06a7 862b 1b2e 4eba 8407 d7db f1b9
000002e0: 3131 a3bd d86a 5bbd b99b 253d 8e8d 9d3b
000002f0: b168 643d 0cfe 1c3d b237 9ebd 8388 b4bd
00000300: 6dc5 d93d 941f 6c3d 146e 4dbd e389 ee3c
00000310: c7a0 233e b615 1fbd c546 dd3d 1a35 f53b
00000320: 0c68 80bd aede ff3d 3e0e 933c fddb 0a3e
00000330: 3321 ccbc 7926 d63d 7a9e d43b 3f87 2b3e
00000340: a1b1 74bc 97dc 88bd 9ae8 f33d 8789 393c
00000350: 54b4 dd3d d672 c23d 9230 93bd b7e9 8db9
00000360: 8519 303d c822 d83c e34f 4d3d 8c1b 5ebd
00000370: 97ef c5bd b01f 4abe 95c4 a13d 0332 8e3c
00000380: b6b3 653c a931 5d3c c481 853d 5a65 783d
00000390: 019c fa3c 816e b3bd 2d0a aa3c 283d d1bc
000003a0: d7b9 3930 58fd 8f21 2b33 70ac eddc f3b0
000003b0: c2a2 1211 ee9b a1a8 bde0 6fba 1cae 3db1
000003c0: 0c2b aebb 090c fbbd 4302 cb3b e2ff a5bd
000003d0: 2248 6cbe 0630 023e a4ef 0fbe bdc7 08be
000003e0: cfb1 3239 8895 abbd 816b c03c 308e 62bd
000003f0: 31ca 743d 2460 67bc d055 4d3c aafb b3bd

tcn.network.1.conv2.bias f4 [32]
0.044158556 0.014551667 0.025757426 0.0068131806 -0.001213194 -0.040211666 -0.00068025675 0.0067478996
0.013779925 -0.048559643 -0.0049869614 -0.052034643 0.021637846 0.00018669956 0.031450156 -0.0063047297
-0.00051391876 0.031465802 0.008869599 -0.060748518 0.014164898 -0.061108667 0.025594722 0.0137031665
0.032641195 0.014088473 -0.0072816066 0.012216168 -0.049483355 0.009246932 0.018247973 0.01166761
00000000: 9adf 343d 1d6a 6e3c 3d01 d33c 1a41 df3b
00000010: 0904 9fba fdb4 24bd 4253 32ba 7c1d dd3b
00000020: 32c5 613c 7ae6 46bd aa69 a3bb 4722 55bd
00000030: da41 b13c c8c4 4339 e1d1 003d e897 cebb
00000040: 81b8 06ba 49e2 003d cb51 113c 70d3 78bd
00000050: e313 683c 154d 7abd 06ac d13c 3f83 603c
00000060: c6b2 053d 57d3 663c 8b9a eebb 5326 483c
00000070: 0faf 4abd 7280 173c c67c 953c 8129 3f3c

tcn.network.1.conv2.weight_g f4 [32, 1, 1]
1.9642812 1.0017672 2.2551475 0.9594129 0.839815 0.4833014 1.2036166 0.91273284
1.0850308 0.4745089 0.699291 0.9204664 2.278392 1.4032218 3.02245 0.8179471
1.3051945 1.1563232 1.0883464 0.43742374 1.2196598 0.42508662 1.2798365 1.157683
1.5168767 0.97017986 0.7441826 1.4702814 0.48976824 0.7781028 1.2229357 1.2021751
00000000: 916d fb3f e839 803f 5654 1040 159c 753f
00000010: 1efe 563f 4873 f73e 1c10 9a3f dca8 693f
00000020: 4ae2 8a3f d5f2 f23e bc04 333f b0a3 6b3f
00000030: 2dd1 1140 c69c b33f d26f 4140 fb64 513f
00000040: 9d10 a73f 6602 943f ef4e 8b3f 01f6 df3e
00000050: d01d 9c3f f4a4 d93e afd1 a33f f52e 943f
00000060: 0429 c23f b55d 783f c082 3e3f 2e32 bc3f
00000070: e7c2 fa3e bf31 473f 2889 9c3f e0e0 993f
